models/03_pytorch_computer_vision_modelv2.pth (torch, 35147 bytes, 10 tensors)

conv_block_1.0.weight f4 [10, 1, 3, 3]
000000 83 49 b9 3e 1e b0 a6 3e b1 bf d5 be 2b 89 23 3e
       0.36188897 0.32556242 -0.4174781 0.15970294
000010 5f 28 3a 3e fc ec ac 3d 93 05 d0 be 65 cb 9d 3d
       0.18179463 0.08443639 -0.40629253 0.0770481
000020 6c fc d2 3e 13 5b 80 be 7f 24 dc 3e fa a8 0f be
       0.41208208 -0.25069484 0.42996594 -0.14029303
000030 e4 c5 62 3e f6 6e e8 3e dc 07 d1 3d 07 14 cf bd
       0.22145802 0.45397156 0.10206577 -0.10111242
000040 06 c2 b2 3e 8e 97 b1 3c a4 36 02 bf 92 1c 3c be
       0.34913653 0.021678712 -0.50864625 -0.18370274
000050 38 dc 73 bb 52 a0 14 bf 8b 06 28 bf af d4 00 3e
       -0.0037210118 -0.5805713 -0.65634984 0.12581132
000060 f0 38 30 bf c9 c7 1d bf 11 bc 2d be c1 d9 47 bf
       -0.6883688 -0.6163297 -0.16966273 -0.7806664
000070 b8 6d 6f bf bc 96 2f bf 74 a9 b2 3e 88 e0 de be
       -0.9352679 -0.6858938 0.34894907 -0.4353068
000080 74 3b 8f 3e a4 a7 bf 3e 07 8e a6 bd 1b 91 c4 3e
       0.27975047 0.37432587 -0.08132558 0.38391957
000090 92 9d 91 bd 77 b1 ac 3e 53 6b da bd 38 bf 9d be
       -0.07110132 0.33729145 -0.10665002 -0.3080995
0000a0 3c 65 b5 3e d3 b4 38 be 14 ed 88 bd 82 d3 b4 3e
       0.35428798 -0.18037729 -0.06685844 0.35317618
0000b0 a5 55 11 3e 0d b6 18 be 45 fc 3a 3e 81 86 62 3d
       0.14192827 -0.14913197 0.18260296 0.055304054
0000c0 95 8e 25 3e 0d 4e 53 be 42 91 a9 be 45 48 08 be
       0.16167672 -0.20635243 -0.33118635 -0.13308819
0000d0 f6 05 84 be 33 47 84 3e 01 09 ca 3d 0b c2 a1 3d
       -0.25785798 0.2583557 0.098649986 0.07898339
0000e0 fd 34 0c bd 98 8a 13 bd 27 9e f6 3d 2b e9 4a be
       -0.03423022 -0.036020845 0.12041884 -0.19815509
0000f0 91 de d2 bc be ec e3 be 6e 80 8a 3c 1e 8e c9 bd
       -0.025740894 -0.44516557 0.016906943 -0.0984156
000100 1c 45 ef 3d 68 fb a9 bd ca a3 a5 3e a2 13 44 be
       0.116831034 -0.08299905 0.32351524 -0.19148114
000110 d7 4d 6b be 0d a6 66 be fd d5 9b 3e 00 e7 ca 3d
       -0.22978912 -0.22524281 0.30436698 0.09907341
000120 f9 d6 b5 3e 04 41 9a be f2 61 bb be 91 1f 8c be
       0.35515574 -0.30127728 -0.36598164 -0.27367833
000130 21 de 98 be 61 59 16 3e 30 43 6b 3e f2 60 dd 3e
       -0.2985697 0.14682533 0.22974849 0.43238026
000140 d2 8f 8b bd 4f 7e 68 be df 0f 34 3e b5 8b 0a be
       -0.06814541 -0.22704433 0.1758418 -0.13529857
000150 e3 7f 4e 3e 39 24 a4 bd ce 59 41 3e 86 ab 84 be
       0.20165972 -0.080147214 0.18881914 -0.25912112
000160 ac 5e 2c be cb d5 cd 3d
       -0.1683299 0.100505434

conv_block_1.0.bias f4 [10]
000000 b0 9c f1 3c f5 86 9f bc 79 6c 49 3e a0 78 21 3e
       0.02949366 -0.019473532 0.19670285 0.15768671
000010 00 5f 8d 3d 20 72 4d be a0 5e cc 3d 5d 0d 8d bd
       0.069028854 -0.20063066 0.09978986 -0.068873145
000020 2b 4d ed bc cd 08 a6 be
       -0.02896746 -0.3242859

conv_block_1.2.weight f4 [10, 10, 3, 3]
000000 37 8c 94 3c d4 c4 67 bc c9 c2 7a bd 8f 26 12 be
       0.018133266 -0.014146049 -0.061220918 -0.14272521
000010 4d 1f 17 be 88 59 3d be cc 4a 00 be 42 46 36 be
       -0.14758034 -0.18491185 -0.12528533 -0.17800239
000020 0f 55 1d be 70 43 e1 bd 0b bb bf bc 63 09 eb bd
       -0.15364479 -0.10999191 -0.023404619 -0.114764
000030 a2 1d 2b be cc 6e 92 be 49 52 7d be 0c 6e 85 bd
       -0.16710523 -0.28600156 -0.2473842 -0.065151304
000040 98 42 22 be 17 ef 46 be ea be 18 bc 3f 8f 3b 3b
       -0.15845716 -0.19427143 -0.009322861 0.0028619317
000050 ae 79 bd 3d 93 5c 07 3e dc ac 96 3e eb c1 5f 3e
       0.09251724 0.13218908 0.29428756 0.21851318
000060 92 41 0e be 90 c9 0c bd 9a 91 9c 3d 01 bd 63 be
       -0.138922 -0.034371912 0.07644959 -0.22240068
000070 42 8a 5c bd 6e 3c 66 be ee 6b 6d 3c a8 97 44 bc
       -0.05384279 -0.2248399 0.0144910645 -0.011999048
000080 24 66 17 be 8c 50 93 3e ac 85 01 3e 22 7b 03 3d
       -0.14785057 0.2877239 0.12648648 0.03209985
000090 04 f9 16 be 3f dc 1d be 76 ea 50 bd 06 46 02 be
       -0.1474343 -0.15416048 -0.05100485 -0.12722024
0000a0 8f a1 55 bd 47 2b 39 be 94 56 0e 3e f5 09 89 bd
       -0.052156027 -0.18082915 0.13900214 -0.06691352
0000b0 95 5f f3 bc e4 59 b6 3c d1 35 60 3d 3e 74 ae 3d
       -0.029708663 0.02225966 0.054738823 0.08518265
0000c0 df a7 c4 3d 48 14 ab bd 2d 9e ed 3c 59 fa 36 bd
       0.09602331 -0.08353478 0.029006088 -0.044672344
0000d0 33 73 51 bc ec 3d 9e bd fa 0f e8 3d c6 51 a0 bd
       -0.012783813 -0.077266544 0.11331172 -0.07828097
0000e0 a8 06 67 3b 15 ab f6 3d 3d 23 93 3d 58 3f 24 bd
       0.003525177 0.1204435 0.071844555 -0.04009947
0000f0 b6 eb 4d 3c 8d 19 87 bc d6 8d a9 bd 3f 91 b5 bd
       0.012568405 -0.016491676 -0.08279006 -0.08865594
000100 0c bb 40 3d e9 39 6d bc 92 af 3f bd 27 66 b6 3d
       0.04705338 -0.014479139 -0.046798296 0.08906203
000110 3d d0 87 3c 07 16 15 bd de 62 52 bd ec d9 22 bc
       0.016578788 -0.03639796 -0.05136382 -0.009939652
000120 39 9a 86 3d cf c6 c6 bc 7a dc 4c bd 7b 7f 2a bd
       0.065723844 -0.024264721 -0.05001495 -0.04162548
000130 6c 19 bb bd 17 f1 2a 3d db c5 09 3e e8 be 8b bd
       -0.09135708 0.041733827 0.13454382 -0.06823522
000140 4d 56 94 3c be 09 5f 3d 51 7b 9c 3c c6 b8 19 bd
       0.018107558 0.05445265 0.01910177 -0.03752973
000150 1b 5a 61 3d c6 e4 62 3d 86 76 21 3d b0 bc 97 bc
       0.055017572 0.055393957 0.039419673 -0.01852259
000160 c4 a8 e4 bc d0 ac 38 3c 89 6e 13 3d 30 c5 a7 bd
       -0.027912505 0.01127167 0.035994086 -0.081919074
000170 80 7c db bb fb 16 50 3e ef 31 e1 3c 4d f0 fe bd
       -0.006698191 0.20321266 0.02748963 -0.124481775
000180 d3 b5 66 3d 59 3e 9b 3d c4 90 e5 3c 52 8a a5 3d
       0.056325745 0.07580251 0.028023131 0.08083023
000190 93 d0 db bd 69 ea eb bd a5 39 13 3e e9 d1 83 3d
       -0.10733142 -0.115193196 0.14377458 0.064365216
0001a0 10 a8 bc bd aa c5 96 bc 52 70 91 ba 55 16 dc bd
       -0.09211743 -0.0184048 -0.0011096096 -0.10746447
0001b0 a6 01 18 bd 3d 9e ee 3c c2 cf 5c 3d 05 53 49 3d
       -0.037110947 0.029128188 0.05390907 0.04915144
0001c0 fb 60 c7 bd ef 84 a1 bd b6 60 3d bc 3e 15 e0 3d
       -0.097352944 -0.07886683 -0.011558702 0.109415516
0001d0 1e 75 1f 3c 89 07 cb 3c 34 7a b2 3d 18 4e 32 3c
       0.009732513 0.024783866 0.08714715 0.010882877
0001e0 b3 bc c3 bd e2 2c a8 3d 34 83 fd 3c 20 f6 fc bc
       -0.09557476 0.08211686 0.030946352 -0.03087908
0001f0 d1 a1 fd bd 8d 9e 12 3e 3d 2b fe 3d c0 b7 e3 3c
       -0.1238438 0.14318295 0.12410591 0.02779758
000200 3f 9c 08 be 39 3d 89 bd 4e 9e 4d bd 6c d7 9e 3c
       -0.13340853 -0.067011304 -0.0501998 0.01938983
000210 4e fb 7a 3d 0d 88 f7 3d 3c 4c 85 3c a1 3b dc 3c
       0.06127482 0.120864965 0.016271703 0.026883902
000220 6e 80 64 ba 9e ad a3 bd dd ef b8 bd 5a a2 c9 bd
       -0.0008716647 -0.07992099 -0.09030125 -0.09845419
000230 53 55 31 3d e1 79 53 bd ab 6a ae bc 11 7e 77 bd
       0.043294262 -0.051629905 -0.021291098 -0.06042296
000240 c0 fd d5 bc 45 7d b1 bd 52 ae 6a bd bc 69 2b 3d
       -0.026121974 -0.086664714 -0.05729515 0.041848883
000250 0b 3b 2f bd 6c b5 2f 3d 9a 96 42 bd c1 d1 97 bd
       -0.042780917 0.042897627 -0.047506906 -0.07413054
000260 08 6b fc bc e4 ae 08 bd 0d 2b b2 bc 58 de c9 bd
       -0.030812755 -0.033369914 -0.021749044 -0.09856862
000270 ff 2b 94 3d 24 f8 5f bd 97 d4 7a 3d 70 43 3b 3d
       0.07234954 -0.054680005 0.061237898 0.04571861
000280 d2 75 9a 3d 24 28 94 bd 4c d1 b0 3d 76 13 17 bd
       0.07542004 -0.07234219 0.0863367 -0.036883794
000290 f7 1a 2b 3d 81 6e bf 3d f1 53 a7 3b 41 f0 9c 3c
       0.041773763 0.09347249 0.005106442 0.01915753
0002a0 6e 77 a5 bc 92 6b c5 bd 6c ab 54 3d 7e 4e d6 bd
       -0.02019855 -0.09639658 0.051921293 -0.1046419
0002b0 9a f5 85 3d 41 8c a1 3d 1b 22 cc 3d 99 d2 cb bc
       0.065409854 0.078880794 0.099674426 -0.024880694
0002c0 93 64 b1 bd f2 1e c2 3c 8b 80 6e 3d eb e4 d6 bd
       -0.08661761 0.023696396 0.058228057 -0.104928814
0002d0 f7 fc bc bc 7c 50 84 bd b5 2b 29 bc 33 13 51 bd
       -0.023069842 -0.06460664 -0.010325362 -0.0510437
0002e0 29 86 3c bd 18 4b 1d bd 16 40 cf bd 54 52 b1 3d
       -0.046026383 -0.038401693 -0.10119645 0.08658281
0002f0 70 37 aa 3d 37 3f 88 bc d9 05 4e bc 31 29 28 bd
       0.08311355 -0.016631706 -0.012574636 -0.04105491
000300 c3 4e c1 bd 27 80 cf bd fd 24 17 3d 89 bf 75 bd
       -0.09438851 -0.10131865 0.03690051 -0.059997115
000310 a8 82 8c bd dd a7 55 bc d9 ca 1a bd d2 0b 17 bd
       -0.06860858 -0.01304051 -0.037791107 -0.036876507
000320 c9 3f 47 ba c6 9e ba bc 1e bd 18 bd 42 17 5c bd
       -0.0007600752 -0.022780787 -0.03728973 -0.053733118
000330 ae 91 b0 bd 12 87 b4 3d 45 0e 2d bd 16 82 df 3c
       -0.08621536 0.08814825 -0.042249937 0.02728371
000340 df af 1b bd bc 28 a2 3b 15 44 c8 3d a8 e7 38 3d
       -0.03800952 0.0049487036 0.097786106 0.0451428
000350 18 f4 c4 bd 02 9d 09 3d f8 7c bb 3d 98 c7 ab 3c
       -0.0961687 0.033597 0.09154695 0.020969197
000360 ec aa 90 3d 83 de d3 3d 10 0b 80 bc a1 55 af 3c
       0.07063851 0.10345175 -0.015630275 0.021403136
000370 db 3b 96 bd 0b a7 ce bc 83 ac 96 3d 8c c2 54 3d
       -0.07335635 -0.025226137 0.07357123 0.051943347
000380 82 2f 93 bd de 1b ad bd d8 85 93 bd ce fc d4 bd
       -0.07186796 -0.08452581 -0.07203263 -0.10399781
000390 a0 94 a6 bd 44 08 d6 bc b0 a2 91 3d aa 5a 90 3c
       -0.08133817 -0.026126988 0.07111108 0.017621357
0003a0 ff 1d a4 bd 4e 34 ad bd 77 3c 4f 3d c5 f3 a5 bd
       -0.08013534 -0.08457242 0.050594773 -0.08103136
0003b0 89 c3 82 bc 0b 2d 48 3d a7 ef 53 bd 7a 48 4d bc
       -0.015962379 0.04887108 -0.051742222 -0.012529487
0003c0 54 60 1e bc 62 91 c5 bc c7 ae 60 bd 26 72 c0 bd
       -0.009666521 -0.024117175 -0.05485418 -0.09396772
0003d0 c6 80 ae bd b6 25 67 bd 99 ec cf 3d 75 cf 50 bd
       -0.08520655 -0.05643245 0.10152549 -0.050979096
0003e0 a5 cd 91 bd f9 95 c8 3c de 75 ed 3c 4c 8a 71 3d
       -0.07119302 0.024485575 0.028986868 0.05896978
0003f0 22 6d a4 3d a0 d9 70 3d 0b 2a d6 bd 24 f3 18 3c
       0.08028628 0.058801293 -0.10457238 0.009335313

conv_block_1.2.bias f4 [10]
000000 5b 5b d1 3e 86 58 f7 bd c4 4f 82 bd ec 62 eb 3e
       0.4089001 -0.120774314 -0.0636287 0.4597391
000010 8c 3b 13 be 5b 0e f5 3d de 16 25 3e 75 e8 3f bd
       -0.14378184 0.11965629 0.16122004 -0.046852548
000020 90 6c 60 3e b1 96 7c 3d
       0.21916413 0.061667148

conv_block_2.0.weight f4 [10, 10, 3, 3]
000000 c7 40 62 bd 8f 7c 1d be f3 46 8c bc b7 04 44 bd
       -0.055237558 -0.15379547 -0.017123675 -0.04785606
000010 df 65 f0 3a 80 a6 0a 3e 36 3a 80 bd 2c d0 b1 3d
       0.0018340907 0.13540077 -0.06261103 0.08682284
000020 e1 c1 1f 3e e2 b0 5c 3d 47 f4 9b bd d1 78 0a bd
       0.15601303 0.053879626 -0.076149516 -0.033806626
000030 54 5a 8e bd 4c e1 3a bd 1a 52 b0 3d ab 5f ce 3c
       -0.069508225 -0.045625016 0.0860941 0.025192102
000040 51 6a bc 3c f2 55 1b bd 01 8a 8e 3c 76 97 7d bd
       0.022999914 -0.03792376 0.01739979 -0.061912023
000050 fc 3f 5a 3d 71 1c 3e bd b6 23 d6 bc fe 53 bc bd
       0.053283677 -0.046413843 -0.026140075 -0.09195708
000060 73 b4 49 3a e6 1a cd 3d 02 9f 50 3d 36 5c 10 be
       0.00076944305 0.10014896 0.05093289 -0.14097676
000070 70 a7 95 3b e4 5e c9 bd 6c aa 24 be 70 b8 2d 3d
       0.0045670792 -0.09832552 -0.16080636 0.04241222
000080 4d e9 f9 bd 7c c8 a1 bd b6 78 86 be 21 0c 30 be
       -0.12202702 -0.078995675 -0.2626397 -0.17192127
000090 56 c3 85 3c e2 06 31 3d bb c3 c0 3c 0d bb 56 bd
       0.016328495 0.043219455 0.023530832 -0.05242448
0000a0 f8 fe d5 3d 80 25 8a bc 48 8d 8b bd d3 63 50 bd
       0.10449022 -0.016863585 -0.06814057 -0.05087645
0000b0 6c 24 cf 3d b4 f1 92 3c 18 a8 de bb e0 8d d3 3c
       0.10114369 0.017937519 -0.0067949407 0.025824487
0000c0 8c 44 f3 3b ba 7b 8a bd 00 e0 d0 bc 8e d5 07 3d
       0.007423943 -0.0676188 -0.025497437 0.033162646
0000d0 74 23 f0 3d 45 fe de 3d 43 5f e2 bd f8 2e 8c 3e
       0.11725512 0.10888342 -0.11053326 0.27379584
0000e0 ba ad 07 bd 54 ec 11 3e 65 ab 86 3e 9c af 0b 3e
       -0.033124663 0.14250308 0.2630264 0.13641208
0000f0 e9 d8 7e 3e 35 c8 8b 3d 1c a5 06 3d ed b7 2a 3d
       0.24887432 0.06825296 0.032872304 0.04167931
000100 a5 93 a0 3d fb c9 f2 3c 65 29 da 3c 8e e4 1e 3e
       0.07840661 0.029637327 0.026631067 0.15516874
000110 b4 d6 6d bd e8 a9 b1 3d ff c7 25 bd c1 b2 74 bc
       -0.058066085 0.08674985 -0.040473934 -0.014935196
000120 a5 04 29 be e6 9d 09 3c a4 8b a8 bc 59 61 76 3d
       -0.16505678 0.008399462 -0.020574398 0.06015143
000130 30 67 42 3e d2 85 92 3c 2b 16 c1 bd de 42 f9 bd
       0.18984675 0.017886076 -0.09428056 -0.12170957
000140 6c bc d4 bc a9 11 06 3e e8 1d 80 b9 f1 e1 1a 3e
       -0.025968753 0.13092674 -0.00024436344 0.15125252
000150 57 9b db 3d 64 26 00 3e 39 44 a1 3d a3 90 4a 3d
       0.10722988 0.12514645 0.078743406 0.049454343
000160 51 18 d4 3d ed 2b 31 3e 34 eb 3a be 8e ae b0 be
       0.103562005 0.17301913 -0.18253785 -0.34508175
000170 b8 01 31 be 0e a0 04 3e cc ce 54 be 22 f5 79 3d
       -0.17285812 0.12951681 -0.20782012 0.061024792
000180 ac 34 84 bc e8 ad a2 3d a6 8a 30 bd d6 2e 6a 3d
       -0.016138397 0.07943326 -0.043100975 0.057173572
000190 8e aa de bd fa 67 37 be c7 59 48 bd 1a 4b 91 3d
       -0.108723745 -0.17910758 -0.048913743 0.070944026
0001a0 a3 50 ea bc 24 eb 23 3d 92 c6 bf bd e9 3a 65 3d
       -0.028602904 0.04001917 -0.09364046 0.055964384
0001b0 cb 73 72 3d de 5b 0b 3d 05 23 6f bd 5e 5c b0 bd
       0.05919246 0.03402316 -0.058383007 -0.08611368
0001c0 05 5d 77 3b 58 97 7f bd cd 44 b0 3d 99 39 d0 bd
       0.0037744653 -0.062400192 0.08606873 -0.10167236
0001d0 27 e1 3a 3d 44 db 2e bd 37 e7 02 3f 9a 08 98 3e
       0.04562488 -0.042689577 0.51134056 0.29694062
0001e0 69 bd 16 be 17 d2 46 3f c1 71 6a 3e b1 e2 47 bf
       -0.14720692 0.7766432 0.22894956 -0.7808028
0001f0 b9 ca 91 be 8f 06 64 be f0 c9 d0 3c 3d c5 ed 3d
       -0.28474978 -0.22268127 0.025486916 0.11609886
000200 57 cf 4b bd 41 d8 2e bd ba 8a fc 3c d0 04 01 bc
       -0.04975828 -0.042686705 0.030827869 -0.007874683
000210 fb ec ec 3c ab 3d d3 bd 2c 29 f1 ba e2 29 40 3d
       0.028921595 -0.103144966 -0.0018399111 0.046914943
000220 41 0e bc be b5 46 16 be 5b 6e 38 3e 62 ec 07 3e
       -0.36729625 -0.1467541 0.18010847 0.13273767
000230 34 26 8f bd 92 ee 66 3e 2d cd a1 3e cc 23 ec 3d
       -0.069897085 0.22551945 0.3160185 0.11530265
000240 98 7d 0c bf a5 69 95 3d ef 70 8e 3d 29 e1 19 bf
       -0.5487914 0.07295541 0.06955134 -0.6010919
000250 1e e3 a5 3e c4 eb d2 3e 1c 9e 9f be a1 a2 1e bd
       0.3239984 0.411955 -0.31175315 -0.038729314
000260 d7 c2 88 bd 1b b6 7c bd a4 99 ab be 0b 2a 89 bd
       -0.06677788 -0.061697107 -0.33515656 -0.06697472
000270 a3 b5 a1 be 0e d1 7b bc 5c 36 a8 bd 05 8c b1 be
       -0.3158389 -0.015369667 -0.08213493 -0.3467714
000280 20 66 da bd b7 1c 9b bd fb 07 be be 74 0e 19 3e
       -0.1066401 -0.07573836 -0.37115464 0.1494692
000290 53 8a f8 3e e6 e8 16 be f5 35 d7 3e 8c 14 7a 3e
       0.48543033 -0.14737281 0.42033353 0.244219
0002a0 d9 5b a1 be a6 a6 3f be 05 6c 55 be 7d 05 e8 3e
       -0.31515387 -0.18715915 -0.20841987 0.45316687
0002b0 c1 df c2 bd 5a cd a3 be cb bd 10 3e 73 7f cb bd
       -0.09515334 -0.31992608 0.141349 -0.099364184
0002c0 ba e9 98 be ee 63 70 be 99 71 38 3e 46 30 67 3e
       -0.2986582 -0.2347562 0.18012084 0.22577009
0002d0 6d 05 5b bd 19 1e 6f 3d b5 07 56 3d bd 29 bb bd
       -0.05347197 0.058378313 0.052253444 -0.0913882
0002e0 95 93 f3 bd dd ad d0 bd 79 00 a7 bd ca 90 88 bd
       -0.118933834 -0.10189412 -0.08154387 -0.06668241
0002f0 42 f1 c4 bc 4c 78 bf bc 08 10 54 bd 27 75 12 bd
       -0.024040822 -0.023372792 -0.0517731 -0.035756256
000300 33 79 33 bd 66 31 d5 3d f2 54 07 bd a9 d3 ac bd
       -0.043816756 0.10409813 -0.033039995 -0.084388085
000310 ae 95 2e 3d fd 47 0f bc af 46 a5 3d db e3 86 3d
       0.042623214 -0.008745191 0.080701225 0.06586429
000320 44 17 c6 3d 1d 43 9e bd 73 a9 8a 3d e8 26 b5 3d
       0.09672406 -0.077276446 0.06770601 0.088453114
000330 7a 96 55 bd 0c 0e c6 3d db b9 a1 3d 77 35 10 bd
       -0.05214546 0.09670648 0.07896777 -0.035207238
000340 3c ed 3b 3d 15 a7 41 ba 06 ce 0a be 47 56 2e 3d
       0.04588054 -0.0007387263 -0.13555154 0.04256275
000350 09 c4 6e 3d 39 5e 02 be 4e 77 9e 3b 31 8c 2c be
       0.058292422 -0.12731256 0.0048359996 -0.16850354
000360 c9 40 a7 3d 54 81 d0 3d ba df 7c 3c da 0c 89 bd
       0.08166654 0.101809174 0.0154342 -0.06691904
000370 ab c4 7e 3d 87 f7 41 3c 0f 9e 7c 3c 4f 07 dc 3c
       0.062199276 0.0118388 0.0154185435 0.026858954
000380 b8 4b 6d 3d 9f ba 52 bd 5a f8 5b bd 0c a8 b7 3c
       0.05793354 -0.051447507 -0.053703643 0.022418998
000390 3f a3 bf bb fc 49 94 3d 05 a4 f6 bc ff e9 74 bc
       -0.005848318 0.07240674 -0.030107507 -0.014948367
0003a0 d0 e7 61 3c 32 fd 19 3b 41 bd 07 3e 4c e3 cd bb
       0.013788179 0.0023496863 0.13255788 -0.0062831994
0003b0 30 eb e1 bc 4e c5 ca bb ed 3d 35 bd 9d 8d c0 3d
       -0.027577966 -0.0061880713 -0.04424851 0.094020106
0003c0 2a db ab bd e4 26 0a be 8b ce 14 bd 0d e1 98 3c
       -0.083914116 -0.13491398 -0.036329787 0.018662
0003d0 1d 4c 07 bd 03 e0 f0 3d e1 6c b3 bc b6 2f ab 3d
       -0.03303157 0.11761477 -0.021902503 0.083587095
0003e0 a7 61 81 3d 44 db 00 be 3e 85 92 3c d4 6c 94 3d
       0.06317454 -0.12583643 0.0178858 0.0724732
0003f0 71 1e a9 bd e5 fe dd bd 2f 21 1e 3e d8 af 5d 3d
       -0.08257759 -0.10839633 0.15442346 0.054122776

conv_block_2.0.bias f4 [10]
000000 23 89 2c be d5 2e 13 3e 7e 95 69 bd 8b 6c 1b be
       -0.16849189 0.14373334 -0.057027332 -0.15178125
000010 60 c5 60 bd b9 8b 3c 3d 8c 03 9e 3e d3 d2 48 3e
       -0.05487573 0.046031687 0.3086208 0.19611673
000020 5e 72 2b 3f f9 88 9b bd
       0.66971385 -0.07594485

conv_block_2.2.weight f4 [10, 10, 3, 3]
000000 bf d1 2a be b0 ad c5 bd 93 98 4d bd 46 f6 05 be
       -0.16681574 -0.09652269 -0.050194334 -0.13082227
000010 88 84 6f bd d4 64 3c bd 6f f5 9a 3d 47 ff f1 bd
       -0.058476 -0.045994595 0.07566344 -0.118162684
000020 9b c5 81 3c 26 4e 35 be 97 49 be be 31 fa d5 bd
       0.015841296 -0.17705593 -0.3716552 -0.10448111
000030 49 eb 9c bd 84 50 e1 bd 4d 59 05 bf 1e 84 b7 3e
       -0.076620646 -0.11001685 -0.5208939 0.35842985
000040 e4 45 b4 3e f5 64 4d bf b7 d6 74 bc c4 e6 91 3a
       0.35209572 -0.80232173 -0.01494377 0.0011131396
000050 77 dd b1 3d a9 24 1d be 13 b8 90 3d 03 f1 56 3c
       0.08684819 -0.15346016 0.07066359 0.013118985
000060 3f 33 d9 bc 76 05 f1 3d ee 3a 0a be b0 23 00 be
       -0.026513694 0.1176862 -0.13499042 -0.12513614
000070 20 86 0b 3e 35 6b a3 bd 29 96 03 be e6 7d 20 3c
       0.13625383 -0.079794325 -0.1285025 0.0097956415
000080 81 f2 f5 bc ef ff 1a bd 88 3c 24 3d 24 38 fa bb
       -0.030022861 -0.037841734 0.04009679 -0.007636087
000090 b4 16 8d bd f8 fc 07 ba a8 5d 72 3d 93 50 e0 bc
       -0.06889096 -0.00051875366 0.05917135 -0.02738217
0000a0 c7 a9 d0 bc 41 85 32 bd 7e 9a 2a bd 43 d1 3e bd
       -0.025471581 -0.043584112 -0.04165124 -0.046586286
0000b0 43 d4 63 be 22 18 71 bd 02 1f 5c bd 31 1b 19 3e
       -0.2224894 -0.058860905 -0.05374051 0.14951779
0000c0 ee f6 87 bc 38 36 10 3d f0 26 c1 3d d2 fd 76 ba
       -0.016597237 0.035207957 0.09431255 -0.00094219774
0000d0 b0 60 73 bd 02 c6 84 bd 9d f9 0b be 48 47 53 3d
       -0.05941838 -0.064830795 -0.13669439 0.05158165
0000e0 bc 3a 12 be 06 25 8c be da 01 cf bb 87 f3 43 3e
       -0.14280218 -0.27371997 -0.0063173594 0.19135867
0000f0 e6 cb 70 be 2c 3d 98 3e 82 42 65 3e 5c 62 31 3e
       -0.23515281 0.2973417 0.22388652 0.17322677
000100 c6 c3 fe 3d 3b 19 82 bc 1a 60 01 3b 0e 61 15 3c
       0.124396846 -0.015881171 0.001974112 0.009117378
000110 e0 8a 65 be 76 fc 3c bd d9 ca 1c 3d 4a 84 50 be
       -0.22416258 -0.046139203 0.038279388 -0.20362964
000120 3b e5 aa 3e 32 3a 94 bd 82 64 6b 3c 0d cf 4d bd
       0.33378014 -0.072376624 0.014367225 -0.050246287
000130 01 9d 79 be fd 40 66 3e ec d7 ba be 60 07 c3 be
       -0.24376298 0.22485729 -0.3649286 -0.38091564
000140 c7 23 8a be 10 f5 7c bc 0c 48 89 3d 17 16 79 bd
       -0.2698042 -0.015439287 0.06703195 -0.060812082
000150 c7 20 c8 3c c2 b4 77 bd 11 59 07 bd 20 94 3f 3d
       0.024429692 -0.06047512 -0.033043925 0.046772122
000160 d7 f5 d0 bc 03 31 9d bd fd 43 92 3d 4f 7b eb 3d
       -0.02550785 -0.07675364 0.07141874 0.114981286
000170 4f f1 20 bd fb c9 68 bc d1 21 d2 3d 96 98 65 bd
       -0.03929263 -0.014208312 0.10260356 -0.05605372
000180 83 39 a6 3e 1e b4 bd 3d de e3 5c 3d aa 37 a2 bc
       0.32465753 0.0926287 0.05392825 -0.019801933
000190 65 24 50 3e c4 83 24 be 4b 34 48 bd 2a 2d b3 be
       0.20326383 -0.1606589 -0.048877995 -0.34995395
0001a0 c5 af ea 3e 38 f3 fa bd fc 2c 2b bf 23 22 6d 3e
       0.45837227 -0.122534215 -0.66865516 0.23157553
0001b0 3e 63 72 3c 71 18 c7 bc 0c ad f8 3d ac 9b bb 3d
       0.014794169 -0.024303647 0.12142381 0.091605514
0001c0 68 eb b8 bd 84 4d 0b 3d f5 07 48 bd 90 95 36 be
       -0.09029275 0.03400947 -0.048835713 -0.17830491
0001d0 fa f3 1a bd 46 36 43 3d 53 6c 0b 3d bc f0 95 3d
       -0.03783033 0.04765918 0.034038853 0.07321307
0001e0 9b 05 27 3e 70 a4 2e be 14 eb 1a be 32 ca 3d 3e
       0.16310732 -0.17054915 -0.15128738 0.18534163
0001f0 1c 71 5d 3c 33 12 1d bd 5f a8 c9 bd 0e 12 20 3d
       0.013515737 -0.038347434 -0.09846567 0.03907972
000200 4e 95 9f bd c3 0a 6f bd f0 30 be bd ba db 70 bd
       -0.077921495 -0.058359873 -0.09286678 -0.058803298
000210 7e 22 bd 3c cd 8b ae bd 49 8c 2b be 4a f4 55 bd
       0.023087736 -0.08522759 -0.16752733 -0.052234925
000220 95 0f 79 3d 40 66 63 3d bf 6f 10 be 62 cc b0 bd
       0.060805876 0.055517435 -0.14105128 -0.08632733
000230 f6 fa ea bb 3d 79 88 bd 50 61 ae 3c e2 26 8c bc
       -0.00717103 -0.06663749 0.021286637 -0.017108385
000240 f8 2e ae bc 94 1c 84 be 36 59 a4 3e dd dd 0a be
       -0.02126263 -0.25803053 0.32099313 -0.13561197
000250 3e 8c 72 be 2e 0f b0 3e e1 12 41 3e 19 d7 70 be
       -0.2368631 0.3438658 0.18854858 -0.23519553
000260 a0 a3 4e 3d f4 b7 94 bd e5 60 78 be 81 f4 d4 bd
       0.050449014 -0.07261649 -0.24255712 -0.10398198
000270 26 b0 29 3e 38 b7 93 be ac 01 46 bd ee 8e 10 3e
       0.16571102 -0.28850722 -0.04834144 0.14117023
000280 52 aa b2 be c0 7a 1a 3e 1f d1 13 be 73 ff 9b bd
       -0.3489557 0.15085888 -0.14435242 -0.076170824
000290 11 6b 6b be 7d 9c 1e 3e 92 8f 39 3e 39 65 c9 be
       -0.22990061 0.15489383 0.18121174 -0.3933504
0002a0 83 b4 26 3e 41 d6 8e 3d 4e 9c c7 bd 6f 37 9c bc
       0.16279797 0.069744594 -0.0974661 -0.019069402
0002b0 33 1c cc 3d 31 22 21 3e 63 81 8a bd c5 63 86 bd
       0.09966316 0.15735699 -0.0676296 -0.06561998
0002c0 17 24 5a 3d 64 32 80 3b 3a fc 8c bc 2d 2f b7 bd
       0.053257074 0.003912257 -0.017210115 -0.08944545
0002d0 13 85 85 3e 8e d2 ca 3b 78 97 2e be 3e 71 58 3c
       0.2607809 0.006189651 -0.17049968 0.013210593
0002e0 93 21 00 3d ad 8a 49 be bf 8d 36 3c 82 27 cd 3d
       0.03128202 -0.19681807 0.011142193 0.10017301
0002f0 9f 98 1c be f0 31 1d bf 2c eb af bd c3 00 22 bf
       -0.15292595 -0.61404324 -0.08589777 -0.6328241
000300 2e 15 b1 be a4 83 fb 3e d3 21 8e be 94 83 b7 be
       -0.3458647 0.4912387 -0.2776018 -0.35842574
000310 eb 05 35 3e 1d 61 ec 3e 6c a1 20 bd 6b 31 20 bd
       0.17678039 0.46167842 -0.039216444 -0.03910963
000320 66 ad 83 bc 22 e6 20 bc fc 06 53 3c 8d f2 8d 3d
       -0.016073894 -0.009820493 0.012880083 0.069310285
000330 cc 33 a5 3b 1b c5 d2 bd 0b 0b d1 3d 8d 3a c5 bd
       0.005041575 -0.10291501 0.102071844 -0.09630308
000340 88 32 95 3d 3b 25 91 3c 30 a8 df 3b cf 01 95 3c
       0.07285029 0.017717948 0.0068254694 0.018189339
000350 60 03 34 be 41 38 24 bd 8a 97 e5 bc de 6d c4 bd
       -0.17579412 -0.04009271 -0.028026361 -0.09591268
000360 27 3d d2 3d 1c 6a 87 bd 10 8f b9 bd ea c1 ad bc
       0.1026557 -0.06612036 -0.0906049 -0.02121063
000370 12 b7 bd 3d 63 81 d0 bd 5d 7f ef 3d eb cc 9f 3d
       0.092634335 -0.101809286 0.116942145 0.07802757
000380 ce e4 a1 3d ef e1 a1 3d c6 cb 26 3c 1e 65 02 be
       0.07904969 0.079044215 0.010180419 -0.12733886
000390 ba c0 a0 3d 9a 2e c1 3c 7e ce 91 bc 25 a4 b0 bd
       0.0784926 0.023581792 -0.017798658 -0.08625058
0003a0 0b c4 71 3c b6 18 6f bd 2f 0b 21 bf 10 70 5f bd
       0.014756213 -0.058373176 -0.6290769 -0.05455023
0003b0 11 fc ba 3e cf 1b bd be 47 4c 19 be 36 a4 71 bd
       0.36520436 -0.3693528 -0.14970504 -0.058994494
0003c0 04 da c7 bd 6d e0 04 3e 54 92 b8 3d 53 c0 85 be
       -0.0975838 0.12976237 0.09012285 -0.26123294
0003d0 b1 b6 bd 3e 7c cc 80 3e fe b6 9f bc b4 f1 0a 3d
       0.37053445 0.2515601 -0.019496437 0.033921912
0003e0 ea 5a 0a bd cf 59 70 bd c7 7d 83 be c3 19 72 be
       -0.03377811 -0.0586794 -0.25681898 -0.2364264
0003f0 9a 04 fd bd ec 2f db bc 37 35 ef 3d 44 7f dd 3b
       -0.12354393 -0.02675625 0.11680072 0.006759556

conv_block_2.2.bias f4 [10]
000000 6a 0b 82 3e fa cf a1 bd e5 43 7d 3e 78 0b e7 3d
       0.25399333 -0.079009965 0.24732931 0.11281484
000010 de 58 91 bd bb 83 ac 3e a9 20 d4 3d 90 dd e8 bd
       -0.07097028 0.33694252 0.10357792 -0.11370385
000020 b5 4c 16 bd 91 f0 44 bd
       -0.036694247 -0.048080985

classifier.1.weight f4 [10, 490]
000000 cf 45 8b bc cc 06 32 3c 34 e3 d6 3d 4b 65 3d be
       -0.01700106 0.010865878 0.10492554 -0.18495671
000010 59 89 15 bc 6a 7a 87 bd 69 8b f2 3d 51 aa 40 3d
       -0.0091269845 -0.066151455 0.118429966 0.047037426
000020 b2 56 7b 3e b3 08 de 3d 82 46 3d be 92 66 dd 3d
       0.2454479 0.10841503 -0.18483928 0.10810579
000030 49 f9 04 3e 50 03 31 3e f3 a3 05 3d 19 2b bb 3d
       0.1298572 0.1728642 0.032627057 0.091390796
000040 58 4a 31 3e da a8 f5 bd b5 36 11 3e 5e 6f 89 3d
       0.17313516 -0.119950965 0.14181025 0.06710695
000050 69 9d 26 bd f3 a2 6a bd 1b aa 31 3e c1 5c 2d bc
       -0.04067746 -0.057284307 0.17350046 -0.010581196
000060 4f c8 67 bd f2 2b bc 3d a3 b5 0a bd 6a 7b ac bd
       -0.056587514 0.091880694 -0.03386463 -0.08421977
000070 e2 17 de bd f1 5d ea 3c 2e ba 05 bd 6c 5e 03 bb
       -0.10844399 0.028609248 -0.032648258 -0.0020045293
000080 e6 bd 5c 3e 61 e5 bf bd 0c 50 93 bc 96 1a ff 3b
       0.21556816 -0.093699224 -0.017982505 0.0077851517
000090 70 c6 be bd 4f 53 62 bd c2 f3 ec bd b8 4f 09 bd
       -0.09315193 -0.05525523 -0.115699306 -0.03352329
0000a0 b5 24 4b 3e 7c db e7 bd 3f d4 83 3d d8 8c 0c be
       0.19838221 -0.1132116 0.06436967 -0.13725603
0000b0 63 88 35 be 30 94 db 3a bb 0e cd bd 2f dd 67 3e
       -0.17727809 0.0016752537 -0.10012575 0.22642969
0000c0 f1 ad a6 bd 16 81 56 3e 74 ee c3 3d 99 77 2b be
       -0.081386454 0.2094768 0.09566966 -0.16744842
0000d0 47 60 a3 bd 24 9a 5d 3d 91 a9 31 bd b9 40 07 3e
       -0.07977348 0.054102078 -0.0433746 0.13208283
0000e0 53 07 81 3c f2 80 c6 bc 66 4a 59 be bb 76 1a bd
       0.015750563 -0.024231408 -0.21219787 -0.037710886
0000f0 81 51 80 bc 29 57 c3 3d ab 0a 41 3b a3 43 bc 3c
       -0.015663864 0.09538109 0.0029455821 0.02298147
000100 6f 73 dd 3d 6a aa db bd ce 28 be bb 6a 24 7f bd
       0.10813033 -0.10725863 -0.005803204 -0.062290587
000110 9b a1 25 3e b2 ba 5c 3d 1f eb c2 3d 20 ee e6 bb
       0.16174929 0.053888984 0.09517502 -0.0070474297
000120 66 fb a0 3c 65 5f 9a bd a2 54 91 bd a9 c7 53 3e
       0.019651126 -0.07537726 -0.070962206 0.20681633
000130 81 61 86 bd 43 fb 07 3d dc 2e 8c bd 38 a9 ea bc
       -0.06561566 0.033198606 -0.06844875 -0.028645143
000140 2e b6 08 be 05 37 7f 3d 56 67 32 3e 3e 13 00 be
       -0.13350746 0.06230833 0.17422232 -0.1250734
000150 79 59 0a be 39 25 02 3d c8 f1 22 be 92 b3 04 be
       -0.13510694 0.03177378 -0.15912545 -0.12959126
000160 91 7a b2 3c c1 1d 8a bc db db 17 3b a0 87 5d bd
       0.02178696 -0.01685989 0.0023171816 -0.05408442
000170 96 0a a5 bb 61 08 21 3e 3f 5f 1b 3b b3 24 63 bd
       -0.0050366623 0.15725853 0.0023707894 -0.05545492
000180 c8 9f 39 bd 46 e0 63 3d d5 dd 7c 3d 65 02 72 bd
       -0.045318395 0.055633806 0.061734993 -0.059084315
000190 e0 5f 9e 3d f6 fd 30 bc df ca f5 3d 19 23 c1 3d
       0.077331305 -0.0108027365 0.12001585 0.094305225
0001a0 20 87 7f 3c fa 52 65 3e c7 5c 08 3e 38 4b ae 3c
       0.015596181 0.22394934 0.13316642 0.021276101
0001b0 68 e0 31 3d 47 d7 08 3d 18 6a f2 3d c0 56 cb 3c
       0.0434269 0.03340843 0.11836642 0.024821639
0001c0 31 a1 b9 3d 3a 1b 16 3e fe 1c a5 3e 5c e9 18 bd
       0.09063948 0.14658824 0.32248682 -0.037331924
0001d0 0a 1f f1 3c 83 22 89 bd 87 b4 74 bd 50 46 10 bc
       0.029433746 -0.06696036 -0.059742477 -0.008805826
0001e0 00 c0 cc bd ed 4c 63 3d 64 2d d4 bd dd 2f 84 bd
       -0.099975586 0.055493284 -0.1036022 -0.06454442
0001f0 71 f8 9d 3d 0e db 94 bd 8e f4 54 be f5 ff c9 3b
       0.07713402 -0.07268344 -0.20796415 0.0061645457
000200 e8 24 a5 3d 58 fc a2 bc 7f 4c e5 bd 77 5d c7 3c
       0.0806368 -0.019895718 -0.11196231 0.02433656
000210 ef 85 9e 3d 0d 51 91 bd 4b ab db 3d 41 85 91 3d
       0.077403896 -0.07095537 0.10726031 0.07105494
000220 a5 86 d0 bd e6 b1 1f be d2 0f eb bd d0 9b 8d 3d
       -0.101819314 -0.15595207 -0.11477627 0.069144845
000230 d9 47 e5 bc 0d 31 e6 3d 6d ab af 3d 49 08 13 be
       -0.027988361 0.112398244 0.08577619 -0.1435863
000240 11 f6 6c bd 62 91 ff bd 21 c2 b5 bd 18 8d 12 3e
       -0.057851855 -0.124789014 -0.08874918 0.14311635
000250 ea 36 c2 bd f8 d1 63 bc a5 b3 b1 bc 74 6c e2 3d
       -0.0948313 -0.013905041 -0.021692107 0.11055842
000260 ec b3 8a 3d b8 17 6f bd d6 19 ee bd ff 97 22 bd
       0.067725986 -0.05837223 -0.116260216 -0.039695736
000270 ac 66 dd bd 21 f3 a9 3a 0c c3 c1 3b 85 3d a7 bd
       -0.10810599 0.0012966135 0.005913144 -0.08166031
000280 25 67 17 be 53 9b 20 be 51 3d 16 bc 1b 70 e0 bc
       -0.1478544 -0.15684251 -0.009169892 -0.027397206
000290 be 63 9f 3d 00 c6 d2 bc 39 48 89 bd 32 7c e8 3d
       0.07782696 -0.02572918 -0.067032285 0.113518134
0002a0 e2 ab 16 3c e5 0e 1f 3e 8b 3d fd bc f6 63 00 3d
       0.0091962535 0.15533026 -0.030913135 0.03134533
0002b0 ce 9b 7a 3c 3e bd f3 bb 85 e9 1e 3e 6f 70 41 bd
       0.015295936 -0.007438331 0.15518768 -0.047226366
0002c0 86 4d 61 3e 54 46 a8 bd 00 7c 91 bd fd b8 62 bd
       0.22002229 -0.08216539 -0.07103729 -0.0553522
0002d0 73 d6 87 bd 37 b3 28 3e b4 9e c2 bd 49 96 5a 3e
       -0.066327 0.16474615 -0.095029265 0.21346392
0002e0 83 8b a5 bd 4a 66 9f bd 83 8f 22 bd 17 ec 20 bc
       -0.080832504 -0.07783182 -0.039687645 -0.009821913
0002f0 70 9f 17 3e d7 b1 82 bb 67 66 cf 3d ea 10 bf bd
       0.14806914 -0.0039884853 0.101269536 -0.09329398
000300 87 4a ee 3c 19 fc c6 bd a7 4e 3d bd a8 62 99 3d
       0.029088272 -0.097160526 -0.046217587 0.0748952
000310 75 09 58 bb 79 79 0b 3d 92 aa 97 bb ae cc f1 3b
       -0.0032964621 0.034051392 -0.004628488 0.007379136
000320 13 13 51 3d aa c5 e3 bc 7c e6 12 bb 85 9b 8e 3c
       0.05104358 -0.027804215 -0.0022415211 0.017408142
000330 99 92 7f 3c 05 7f 21 3e 30 0e 88 3e b2 0d ac 3d
       0.015598916 0.1577111 0.26573324 0.0840105
000340 b0 b0 d2 bd d0 c9 27 3d 04 f5 e2 3d 11 ab 10 3e
       -0.10287607 0.040963948 0.11081889 0.14127757
000350 76 cb 31 3b 32 ea 47 3e 9f 6f 0a 3e b7 23 42 3e
       0.0027129329 0.19522932 0.13519143 0.18958937
000360 75 12 35 3e ae 7f 3d 3e 74 c4 c9 3d fb f6 0c be
       0.17682822 0.18505737 0.098519236 -0.1376609
000370 1c 8a c8 bb 4d ee 8d 3d b0 da 41 3e 2f fc 23 3d
       -0.0061199795 0.06930218 0.18931079 0.040035423
000380 6d 28 95 3d 24 50 0f be fb d4 53 be 74 0f 62 3d
       0.07283101 -0.13995415 -0.20686714 0.05519052
000390 4e 6b e2 3b d9 b8 69 3c 2b 1a 5b bd f2 63 ef bb
       0.0069097644 0.0142652625 -0.053491753 -0.0073056156
0003a0 2e d5 6f be d4 41 a3 bc e2 b4 3a 3c b9 dc 3a bc
       -0.23421165 -0.01992885 0.011395665 -0.011405163
0003b0 17 b4 1c 3d 47 9a 69 bd 91 30 61 bc 19 db 45 3c
       0.038257685 -0.057031896 -0.013744489 0.012076163
0003c0 99 7c 61 3d f1 f0 71 bd 34 aa 01 be ff 21 62 bd
       0.055050466 -0.05906767 -0.12662584 -0.055208202
0003d0 ee 39 2c bd 85 a6 a1 bb 7d 58 de 3d 43 40 30 be
       -0.042047434 -0.0049331808 0.108567216 -0.17212014
0003e0 a2 65 3f 3e 60 66 18 3d 27 bf 95 3e ba 85 c1 3d
       0.18691114 0.037207007 0.292474 0.094493344
0003f0 2e 4a 3e bc 52 4c 1f bd 52 ff 9c bd 7e 92 6d 3e
       -0.0116143655 -0.038891144 -0.07665886 0.23200414

classifier.1.bias f4 [10]
000000 c3 a1 bc 3d f8 9a 16 be 04 a2 d8 3e f4 c7 49 bd
       0.09210541 -0.14707553 0.42311108 -0.049262956
000010 92 51 bb be 12 46 36 be 02 65 f3 3d 06 d4 c3 3c
       -0.3658567 -0.17800167 0.118845 0.023904812
000020 01 c6 22 3e f4 8d e8 bd
       0.15895845 -0.113552004
