models/05_pytorch_going_modular_tinyvgg_args.pth (torch, 36527 bytes, 10 tensors)

conv_block_1.0.weight f4 [10, 3, 3, 3]
0.15610914 0.1689894 -0.035241567 0.18561095 -0.033486605 0.047730833 -0.084917895 0.12121258
0.17816788 -0.13761772 0.17191206 0.041477174 0.14580074 0.030278984 0.09717727 -0.023392731
0.15188457 0.032013778 -0.085741065 0.054810822 -0.08208579 -0.018632514 -0.07294221 0.13299333
-0.14819293 -0.08464737 -0.050360195 -0.13017297 0.0025055525 -0.20471221 0.16257067 -0.17534754
0.13452233 0.021237459 -0.07070348 0.10845304 0.017127827 0.14054742 0.0066646407 -0.07335486
0.03788283 -0.06712755 0.06988607 0.16085592 0.099995546 -0.09699818 0.09683039 0.02166987
0.08555202 -0.13099855 -0.20415163 -0.08145391 -0.15598069 0.14936812 0.044736292 0.069078036
0.048748612 -0.0130759915 0.14097376 -0.14798526 0.0012606431 -0.14190947 0.047941975 -0.06863811
0.056643747 -0.044291455 0.15737975 -0.116507046 -0.11913994 -0.1179358 0.1697828 0.05923938
0.18599723 -0.15785189 -0.19242083 -0.14927527 -0.12859702 0.07604402 0.069297954 0.15967803
-0.10198477 -0.12647286 0.1062723 -0.0735467 0.121619925 -0.041349057 0.11424035 -0.14466654
-0.09266751 0.06286252 0.054659456 -0.03738879 0.12583329 0.14233062 -0.12760678 -0.091346145
0.18762025 -0.052846543 -0.05654181 -0.16719085 -0.09383539 0.06559969 -0.008405567 -0.122108
0.020827187 -0.112371445 -0.14541298 -0.0891574 -0.14990956 -0.101716265 0.21167128 0.05423415
0.07764072 -0.15894955 -0.10864548 -0.04673594 0.051703528 -0.14989989 -0.061705057 -0.096419364
0.020378694 -0.05199502 0.007985192 -0.11103845 -0.11364478 -0.08885325 -0.047859453 -0.13519448
0.1773016 -0.019742107 0.18295196 0.07850312 -0.1441489 0.15036882 -0.031325668 -0.07589866
-0.16143869 -0.19359893 0.055424497 -0.041585233 0.07484082 -0.156985 0.14383449 -0.14019296
-0.036214855 0.032853387 0.09421652 0.15585516 0.17556396 -0.15262906 0.049667995 -0.0819247
-0.019867454 -0.15372853 0.1645474 -0.15124764 0.10006276 0.06440626 0.059261393 -0.10510309
0.17328337 0.04114991 0.023965564 -0.17327344 0.073749214 -0.026369037 -0.08762656 0.15863226
0.045451067 -0.10579706 -0.10623514 -0.009893629 0.103989586 -0.055066593 -0.10739353 -0.06447218
-0.14993504 0.06933385 0.1487803 -0.19106647 0.04200619 0.09406014 0.027507894 -0.06933048
0.098572254 0.09387785 0.06962818 -0.037592664 -0.06137815 0.024115812 -0.030906713 -0.053081464
0.12759392 0.16834615 -0.016165402 -0.037848767 0.006498652 -0.008367449 0.0467907 0.05478711
-0.1718767 -0.06938553 0.16251577 0.07598574 -0.007012167 -0.11523962 -0.117110796 -0.17065851
-0.06027306 0.07002106 0.12501527 0.090158954 -0.1677934 -0.11325393 -0.029680386 0.18719399
0.03397038 -0.04368068 0.08575866 -0.06732275 -0.11978629 0.14595596 -0.081881315 -0.034123234
-0.18697003 0.13674755 0.15389614 0.078604825 -0.12559973 -0.18169685 -0.14747573 0.15160897
0.099953994 0.17022803 0.10734519 0.05580541 0.00564146 -0.13913535 -0.15812157 -0.172488
0.085651115 -0.0887868 -0.032780424 -0.11075604 -0.035068944 -0.13545309 -0.12574992 0.06383778
-0.05719547 0.11880775 -0.061739683 -0.14117508 -0.033955693 -0.09328968 -0.05887848 -0.18321164
00000000: 13db 1f3e 8f0b 2d3e 7659 10bd cc10 3e3e
00000010: 4029 09bd 6881 433d 6fe9 adbd 4d3e f83d
00000020: a471 363e a9eb 0cbe b709 303e f8e3 293d
00000030: ca4c 153e a20b f83c e004 c73d 1da2 bfbc
00000040: a187 1b3e e120 033d 0399 afbd 5081 603d
00000050: 981c a8bd 37a3 98bc ba62 95bd 672f 083e
00000060: e3bf 17be 9a5b adbd 7e46 4ebd 104c 05be
00000070: 3234 243b 14a0 51be ed78 263e 4e8e 33be
00000080: 39c0 093e 2efa ad3c fccc 90bd a11c de3d
00000090: a84f 8c3c aaeb 0f3e 0f63 da3b 133b 96bd
000000a0: 072b 1b3d 2b7a 89bd 6e20 8f3d 6ab7 243e
000000b0: 77ca cc3d fba6 c6bd 034f c63d 0385 b13c
000000c0: e635 af3d 7c24 06be 200d 51be 4fd1 a6bd
000000d0: 67b9 1fbe f5f3 183e 673d 373d c978 8d3d
000000e0: a0ac 473d af3c 56bc 6d5b 103e 7389 17be
000000f0: 2a3c a53a b750 11be ce5e 443d 2392 8cbd
00000100: 4603 683d f56a 35bd 2828 213e 3f9b eebd
00000110: a4ff f3bd 5388 f1bd 8bdb 2d3e fea4 723d
00000120: 0f76 3e3e eda3 21be f709 45be 9edb 18be
00000130: f0ae 03be f8bc 9b3d 16ec 8d3d a382 233e
00000140: 64dd d0bd 1a82 01be 4ba5 d93d a79f 96bd
00000150: de13 f93d a15d 29bd d8f6 e93d 7723 14be
00000160: 77c8 bdbd 11be 803d 98e2 5f3d fd24 19bd
00000170: 71da 003e 1ebf 113e 5aab 02be b013 bbbd
00000180: 861f 403e 9e75 58bd 6398 67bd 1434 2bbe
00000190: c52c c0bd 2159 863d 81b7 09bc c213 fabd
000001a0: c79d aa3c 0023 e6bd 24e7 14be 2898 b6bd
000001b0: e481 19be 9e50 d0bd 5bc0 583e a124 5e3d
000001c0: 1902 9f3d acc3 22be 8581 debd 2f6e 3fbd
000001d0: 14c7 533d 5b7f 19be 71be 7cbd 8477 c5bd
000001e0: 38f1 a63c bbf8 54bd 53d4 023c 2068 e3bd
000001f0: 98be e8bd b1f8 b5bd 4608 44bd 6c70 0abe
00000200: 8d8e 353e 33ba a1bc c257 3b3e 3ec6 a03d
00000210: c59b 13be 49fa 193e 584f 00bd c270 9bbd
00000220: 2f50 25be cc3e 46be cc04 633d 4755 2abd
00000230: 2546 993d adc0 20be 5949 133e be8e 0fbe
00000240: 0756 14bd 4691 063d 97f4 c03d 7f98 1f3e
00000250: 0ac7 333e cb4a 1cbe ab70 4b3d 23c8 a7bd
00000260: 12c1 a2bc 036b 1dbe 1d7f 283e a9e0 1abe
00000270: b4ed cc3d 6ee7 833d 13bc 723d 4a40 d7bd
00000280: 3271 313e cf8c 283d 6e53 c43c 986e 31be
00000290: d409 973d e103 d8bc 8e75 b3bd 7f70 223e
000002a0: e62a 3a3d 21ac d8bd cf91 d9bd e318 22bc
000002b0: 7ef8 d43d 828d 61bd 24f1 dbbd fe09 84bd
000002c0: 9288 19be e8fe 8d3d dd59 183e eea6 43be
000002d0: af0e 2c3d 9aa2 c03d 3c58 e13c 24fd 8dbd
000002e0: 40e0 c93d 0843 c03d 3899 8e3d c4fa 19bd
000002f0: a867 7bbd 868e c53c 1330 fdbc f36b 59bd
00000300: fba7 023e ef62 2c3e 4e6d 84bc 4f07 1bbd
00000310: a5f2 d43b a017 09bc 9ba7 3f3d 7368 603d
00000320: 7200 30be 001a 8ebd 896a 263e 699e 9b3d
00000330: 52c6 e5bb c002 ecbd c9d7 efbd 1bc1 2ebe
00000340: e2e0 76bd 3467 8f3d 0104 003e 42a5 b83d
00000350: 08d2 2bbe adf1 e7bd 4824 f3bc c8af 3f3e
00000360: 8624 0b3d 83ea 32bd 3da2 af3d 83e0 89bd
00000370: 8452 f5bd 7b75 153e 64b1 a7bd cec4 0bbd
00000380: 1275 3fbe 8d07 0c3e f396 1d3e 91fb a03d
00000390: 379d 00be bd0e 3abe e103 17be 623f 1b3e
000003a0: aeb4 cc3d 4250 2e3e ccd7 db3d 3794 643d
000003b0: ffdb b83b 7f79 0ebe 9fea 21be b2a0 30be
000003c0: da69 af3d dbd5 b5bd c444 06bd 10d4 e2bd
000003d0: 74a4 0fbd 37b4 0abe 96c4 00be 62bd 823d
000003e0: cc45 6abd 7a51 f33d c0e2 7cbd 3390 10be
000003f0: 2015 0bbd a90e bfbd 902a 71bd d59b 3bbe

conv_block_1.0.bias f4 [10]
0.085170336 -0.19907153 0.11446288 0.1635773 0.20379509 -0.04595616 -0.16378541 0.05655226
0.122070946 -0.19154726
00000000: c96d ae3d 68d9 4bbe 846b ea3d cf80 273e
00000010: a9af 503e 873c 3cbd 5db7 27be 58a3 673d
00000020: 5500 fa3d f724 44be

conv_block_1.2.weight f4 [10, 10, 3, 3]
-0.014250172 -0.052942507 0.00086589676 -0.041363016 -0.033117272 -0.02305919 -0.09050049 0.095589116
0.09788267 -0.005599727 0.0004936494 -0.037580933 -0.08864204 -0.09511649 0.043419167 -0.046880584
-0.0655403 -0.008056333 -0.018607866 -0.018458474 0.018819125 -0.0061538434 -0.020533103 -0.03479546
-0.07080743 0.10324982 -0.02801757 0.04928878 -0.015064697 0.028941909 0.11781407 0.06785262
-0.071218126 0.061576556 0.11992707 0.048247032 0.094645865 0.13177758 0.010405316 0.04147652
-0.04788748 0.002544905 0.09750714 0.07690427 -0.044087812 -0.084186465 -0.07942965 -0.110735655
-0.08196132 -0.023154493 0.07300415 0.0032366847 -0.08333835 -0.08203792 0.047399282 -0.08504782
-0.012537154 0.05056546 -0.05102816 -0.014224087 -0.009175293 -0.024938077 -0.056097027 -0.075550646
-0.06774908 -0.03973654 0.11769287 -0.035487697 -0.056852322 0.039195675 0.043163326 0.07106529
0.09367177 0.07409079 -0.08651748 0.026979346 0.081704795 0.0075448877 -0.04221077 0.11995925
-0.020306733 -0.060014185 -0.09503225 0.004708454 0.046710335 0.023333691 0.020844646 -0.07994106
-0.098440364 0.001856193 0.09903907 0.06308401 -0.059570182 -0.010925252 -0.07584799 -0.04965652
0.021887803 0.05902568 0.088418074 -0.092326455 0.07704969 -0.0640064 0.04823325 0.09715419
0.0051953173 0.10348642 -0.07741761 -0.030320503 0.06434673 -0.019898133 -0.018534001 -0.04011444
0.07647847 0.055068146 0.039496314 -0.05390111 -0.08072183 0.016987266 0.040607184 -0.03706679
-0.02040891 0.08443981 0.023604047 0.012705767 -0.012852052 -0.077720605 -0.09264655 -0.042187236
-0.04145633 0.04441336 -0.015950294 -0.02501652 0.11701217 0.053021863 0.09456249 -0.04578635
-0.039581407 0.04108184 -0.06553666 -0.06498003 -0.0014878268 -0.038021058 -0.07746358 0.064402245
0.07662101 0.021577368 -0.016209072 -0.10448936 -0.02967774 0.026239365 0.049368594 -0.006990472
-0.036685005 0.060898084 -0.079908475 0.07025034 -0.037179705 0.00072451576 -0.018416092 0.017601129
-0.02815588 0.07974435 0.006047284 0.0944568 0.11335195 -0.039274618 -0.06259879 0.09854269
0.09715583 -0.06655977 0.0075474326 -0.10394684 -0.08628792 0.020359017 0.028042503 0.02234476
-0.028688677 0.097248234 0.015071198 -0.0622004 -0.009899495 0.02137829 0.0334934 -0.078270935
0.035686318 -0.057681467 -0.091058284 -0.06142513 0.09775139 0.09010992 0.09439235 0.061876424
0.07963138 -0.014109001 -0.05799911 0.05266843 -0.05462126 -0.07113711 -0.037023045 0.016106192
0.0482435 -0.044442166 -0.065663725 0.009912562 -0.06566441 -0.07215095 0.051390324 -0.021184606
0.09308033 0.099233136 0.027992524 0.03290488 0.021052154 -0.0018726818 -0.011175291 -0.001916199
0.03590791 0.09495289 -0.0303968 -0.04807182 -0.028869413 -0.05409516 0.0144287115 0.07524018
0.07907036 0.048396073 -0.07757399 -0.05657365 -0.023159616 -0.019429468 0.0046106414 -0.096762694
0.032808073 -0.08041378 -0.06669715 -0.08763541 0.09184516 -0.099816225 0.07951724 -0.0035435334
-0.012258969 0.06593122 -0.009742729 0.063793845 0.07621247 -0.09151738 0.03712362 0.016261471
0.017676663 0.012425936 0.02527568 -0.054326076 -0.017323533 0.096394494 0.06702898 -0.007560122
00000000: 8e79 69bc 3eda 58bd 59fd 623a 446c 29bd
00000010: faa5 07bd a0e6 bcbc 5258 b9bd 3ac4 c33d
00000020: b676 c83d ea7d b7bb 4068 013a 77ee 19bd
00000030: f589 b5bd 6fcc c2bd 4cd8 313d db05 40bd
00000040: fe39 86bd b6fe 03bc 866f 98bc 3a36 97bc
00000050: 912a 9a3c 2ea6 c9bb 0a35 a8bc af85 0ebd
00000060: 7c03 91bd a474 d33d 1a85 e5bc 08e3 493d
00000070: ebd1 76bc 9517 ed3c 8148 f13d 50f6 8a3d
00000080: cfda 91bd b337 7c3d 539c f53d ae9e 453d
00000090: b1d5 c13d b4f0 063e 0f7b 2a3c 49e3 293d
000000a0: aa25 44bd 6cc8 263b d3b1 c73d fc7f 9d3d
000000b0: 6c95 34bd f469 acbd 03ac a2bd 60c9 e2bd
000000c0: 56db a7bd 7eae bdbc 3383 953d 8f1e 543b
000000d0: 4cad aabd 7f03 a8bd c025 423d 8d2d aebd
000000e0: a368 4dbc ba1d 4f3d e702 51bd 250c 69bc
000000f0: f853 16bc f04a ccbc ffc5 65bd 4cba 9abd
00000100: 08c0 8abd c8c2 22bd f608 f13d 8c5b 11bd
00000110: fbdd 68bd a58b 203d 07cc 303d ae8a 913d
00000120: fcd6 bf3d e9bc 973d 1430 b1bd ca03 dd3c
00000130: d854 a73d 1b3b f73b 33e5 2cbd 32ad f53d
00000140: 4e5a a6bc 6fd1 75bd 45a0 c2bd 6049 9a3b
00000150: 5653 3f3d 4c26 bf3c 64c2 aa3c 23b8 a3bd
00000160: 1a9b c9bd 804b f33a ffd4 ca3d 3032 813d
00000170: ddff 73bd d4ff 32bc 3156 9bbd a364 4bbd
00000180: 0d4e b33c e9c4 713d 8914 b53d a715 bdbd
00000190: 3acc 9d3d ca15 83bd 3a90 453d c7f8 c63d
000001a0: 7b3d aa3b b0f0 d33d 208d 9ebd b462 f8bc
000001b0: 38c8 833d 6901 a3bc 9ed4 97bc 0a4f 24bd
000001c0: bea0 9c3d 238f 613d e3c6 213d 69c7 5cbd
000001d0: 7d51 a5bd e128 8b3c b853 263d 59d3 17bd
000001e0: 9630 a7bc c7ee ac3d 465d c13c d92b 503c
000001f0: 6a91 52bc fb2b 9fbd 79bd bdbd 86cc 2cbd
00000200: 1dce 29bd c9ea 353d 31aa 82bc 72ef ccbc
00000210: 14a4 ef3d 742d 593d fba9 c13d 788a 3bbd
00000220: 1d20 22bd 6e45 283d 1638 86bd 4014 85bd
00000230: 2f03 c3ba f8bb 1bbd 3aa5 9ebd 53e5 833d
00000240: 7aeb 9c3d 05c3 b03c e3c8 84bc 84fe d5bd
00000250: bb1e f3bc f0f3 d63c b936 4a3d 5410 e5bb
00000260: 0443 16bd 4570 793d 0ea7 a3bd 69df 8f3d
00000270: bf49 18bd 6eed 3d3a 58dd 96bc 3e30 903c
00000280: 29a7 e6bc 0151 a33d 4c28 c63b 9172 c13d
00000290: 1125 e83d 6cde 20bd cb33 80bd c0d0 c93d
000002a0: a3f9 c63d 7d50 88bd 7450 f73b 15e2 d4bd
000002b0: b9b7 b0bd f4c7 a63c 64b9 e53c 5c0c b73c
000002c0: 8404 ebbc 152a c73d 30ed 763c d9c5 7ebd
000002d0: 7e31 22bc 8621 af3c 6030 093d 834c a0bd
000002e0: d12b 123d 6743 6cbd c47c babd eb98 7bbd
000002f0: e131 c83d 8d8b b83d c750 c13d 2272 7d3d
00000300: c715 a33d 7029 67bc 7a90 6dbd daba 573d
00000310: 8bba 5fbd 55b0 91bd 7aa5 17bd 22f1 833c
00000320: fa9a 453d fd08 36bd b47a 86bd 4c68 223c
00000330: 107b 86bd e1c3 93bd a97e 523d 578b adbc
00000340: e6a0 be3d be3a cb3d 9450 e53c 44c7 063d
00000350: 9175 ac3c c674 f5ba 9118 37bc f828 fbba
00000360: 2c14 133d a976 c23d b602 f9bc f5e6 44bd
00000370: 8c7f ecbc e392 5dbd 6766 6c3c 8617 9a3d
00000380: a4ef a13d f63a 463d 1ddf 9ebd c6b9 67bd
00000390: 3cb9 bdbc 8c2a 9fbc dd14 973b 852b c6bd
000003a0: c261 063d fbaf a4bd 8498 88bd 327a b3bd
000003b0: 5119 bc3d 736c ccbd efd9 a23d a03a 68bb
000003c0: d8d9 48bc f306 873d f89f 1fbc 59a6 823d
000003d0: 4915 9c3d 776d bbbd f00e 183d c736 853c
000003e0: a6ce 903c 2796 4b3c f10e cf3c 0585 5ebd
000003f0: 15ea 8dbc 7a6a c53d 7d46 893d e6ba f7bb

conv_block_1.2.bias f4 [10]
0.023710232 0.025971064 -0.09551255 -0.08975741 0.014332596 -0.04246646 0.0033778932 -0.022913974
0.03443648 0.054487877
00000000: f63b c23c 45c1 d43c 159c c3bd bcd2 b7bd
00000010: 44d3 6a3c 50f1 2dbd a55f 5d3b 16b6 bbbc
00000020: 440d 0d3d ae2e 5f3d

conv_block_2.0.weight f4 [10, 10, 3, 3]
-0.067313924 0.05314104 0.05025456 -0.1122593 -0.11074216 -0.11570044 -0.0876478 -0.068124235
-0.037413057 -0.024134645 -0.05174461 -0.032115202 -0.036598127 0.10487345 -0.037997708 -0.07356894
0.04545562 -0.0046179406 0.07619921 0.06156188 0.0928966 -0.08023899 0.06776375 0.08846354
-0.053862303 0.09563916 0.08153162 0.0011543557 0.05082334 -0.03440115 -0.091936246 0.026645355
0.034721646 -0.06889117 0.051123448 -0.09156238 0.07511929 0.08333055 0.010861393 -0.08146325
0.034142427 -0.0014647522 0.011979207 0.017717455 0.061976448 -0.05348089 -0.029052375 0.022702241
0.019965151 0.08555492 -0.05870587 -0.009426073 0.0123238405 -0.034837972 0.055985186 -0.0024817658
-0.11194103 -0.025926346 -0.061116237 -0.0014607925 -0.026373774 -0.11712178 -0.031713255 0.00914455
-0.012354935 0.1147453 -0.0023140083 0.087433465 0.04500018 -0.06888198 0.044005036 0.106049456
-0.08356277 -0.088024445 0.09443083 0.07116894 -0.07235932 0.048266403 -0.030561855 -0.118372284
-0.0063087884 0.03785691 -0.027606612 0.040417332 -0.08625181 0.07679777 0.09333337 0.061852675
0.021332962 0.037798755 -0.047309708 0.0033420841 0.021371208 -0.032387104 -0.049924247 0.09717908
0.09910809 -0.072592326 0.05667796 0.05454469 0.11076979 0.07037893 0.10778186 -0.023804303
0.084759384 0.09619334 -0.09048484 -0.0742413 0.026938535 0.06116064 -0.048406184 0.013353691
0.0053606373 0.024738604 -0.056804594 0.059454925 0.07387419 -0.07313909 0.0010211468 0.0002924651
0.033848576 0.09819763 0.030912675 -0.0239513 0.094671525 -0.040111683 -0.009904736 0.029900702
-0.06325737 0.027498158 -0.059154563 0.029859131 0.03035246 0.03330054 -0.08238317 -0.101546414
0.041058604 0.09219139 -0.10168199 0.044825517 -0.07410297 0.00028085712 0.10302455 0.07652051
-0.0467787 0.095755026 0.087473236 0.03274441 0.13119367 -0.012580573 0.006190745 -0.022723293
0.04653185 0.023612753 0.00055769377 -0.05387821 -0.052895375 0.028038142 -0.09790177 -0.02045372
-0.006662422 -0.04065969 0.06680749 0.03612935 0.09516795 0.020115552 -0.040625546 0.09826501
0.03908324 -0.0011242899 -0.048789624 0.03085792 -0.09762993 0.03235306 0.057915803 -0.0866209
-0.0620949 -0.06904993 0.09439797 0.097286865 -0.02406918 0.067383625 -0.06796701 -0.13101381
0.0055962587 0.0054315124 0.075392246 -0.030412711 0.04975943 0.062423546 0.074459895 -0.10637159
0.084275074 -0.09185698 0.09236369 -0.00743167 -0.096076176 0.02681458 -0.02517868 -0.096666485
-0.042255174 0.0066998894 0.07817471 -0.03552759 0.058508802 0.008793247 -0.0006840655 0.020169534
-0.06917679 -0.08463395 -0.03312081 -0.09822604 -0.046988524 0.0048494413 -0.06942351 -0.042905018
-0.040309403 -0.03591476 -0.080988 -0.014197405 -0.035836842 0.007581744 -0.0146552995 -0.07316771
-0.055877827 0.00084042 -0.070659496 0.0024516045 0.0011945593 0.03837186 0.018262846 0.07523728
0.0012735155 -0.0767399 0.0239372 -0.0921176 -0.035240643 -0.057288703 -0.06450307 -0.060996715
0.07448252 0.04037303 0.00596213 0.11837644 -0.07416688 0.039204262 0.08570086 0.09014654
-0.061543193 0.05367679 -0.04161829 0.014757731 -0.04111926 -0.106981084 -0.12265642 -0.09167678
00000000: e2db 89bd 6baa 593d bad7 4d3d 34e8 e5bd
00000010: c9cc e2bd 5af4 ecbd b180 b3bd b884 8bbd
00000020: 6f3e 19bd 05b6 c5bc 28f2 53bd 3b8b 03bd
00000030: ebe7 15bd e4c7 d63d 7ca3 1bbd 50ab 96bd
00000040: ac2f 3a3d 1852 97bb 550e 9c3d 4f28 7c3d
00000050: 9340 be3d 5754 a4bd b9c7 8a3d 5f2c b53d
00000060: b89e 5cbd 77de c33d 0dfa a63d c04d 973a
00000070: 222c 503d 38e8 0cbd 1249 bcbd 5c47 da3c
00000080: 4938 0e3d d016 8dbd d266 513d 0f85 bbbd
00000090: 24d8 993d 35a9 aa3d fcf3 313c 34d6 a6bd
000000a0: eed8 0b3d eefc bfba 7044 443c 3224 913c
000000b0: 04db 7d3d c70e 5bbd 3fff edbc 0dfa b93c
000000c0: f58d a33c 6b37 af3d 9175 70bd d16f 1abc
000000d0: efe9 493c 43b2 0ebd b950 653d 1fa5 22bb
000000e0: 5741 e5bd 7d63 d4bc 0555 7abd 1078 bfba
000000f0: d00d d8bc 8bdd efbd c2e5 01bd 06d3 153c
00000100: 5a6c 4abc 95ff ea3d 9ea6 17bb 5110 b33d
00000110: 1c52 383d ff11 8dbd a03e 343d 7530 d93d
00000120: f522 abbd 2946 b4bd f364 c13d 05c1 913d
00000130: 2031 94bd feb2 453d db5c fabc 2b6d f2bd
00000140: f4b9 cebb d90f 1b3d 4327 e2bc a58c 253d
00000150: caa4 b0bd 2648 9d3d 9125 bf3d 3b59 7d3d
00000160: 77c2 ae3c ded2 1a3d d3c7 41bd de06 5b3b
00000170: ac12 af3c 57a8 04bd 5e7d 4cbd d305 c73d
00000180: 2ff9 ca3d 49ab 94bd 2627 683d 416a 5f3d
00000190: 46db e23d d422 903d bcbc dc3d 3e01 c3bc
000001a0: 5496 ad3d 0401 c53d 1e50 b9bd d30b 98bd
000001b0: 34ae dc3c 9483 7a3d 9045 46bd 71c9 5a3c
000001c0: 49a8 af3b 9da8 ca3c efab 68bd 0287 733d
000001d0: 5a4b 973d f2c9 95bd 00d8 853a 0056 9939
000001e0: cea4 0a3d d71b c93d 943c fd3c 8435 c4bc
000001f0: 25e3 c13d 264c 24bd 7947 22bc 51f2 f43c
00000200: 148d 81bd d143 e13c 0e4c 72bd 239b f43c
00000210: b9a5 f83c 2666 083d 82b8 a8bd 91f7 cfbd
00000220: 112d 283d d7ce bc3d a63e d0bd f69a 373d
00000230: 4cc3 97bd 0140 9339 89fe d23d c9b6 9c3d
00000240: 069b 3fbd 361b c43d 2b25 b33d 011f 063d
00000250: a257 063e bf1e 4ebc bcdb ca3b 3326 babc
00000260: 2e98 3e3d 886f c13c 3232 123a 66af 5cbd
00000270: d2a8 58bd 3fb0 e53c b980 c8bd 8f8e a7bc
00000280: 7250 dabb c68a 26bd 5ed2 883d 5ffc 133d
00000290: 6ae7 c23d 5fc9 a43c f966 26bd 2a3f c93d
000002a0: bf15 203d e95c 93ba a1d7 47bd c0c9 fc3c
000002b0: 33f2 c7bd a484 043d 1f39 6d3d 4c66 b1bd
000002c0: 3957 7ebd 0d6a 8dbd b953 c13d 563e c73d
000002d0: bb2c c5bc 6d00 8a3d 4a32 8bbd 7c28 06be
000002e0: d260 b73b d4fa b13b 4067 9a3d 1424 f9bc
000002f0: 8bd0 4b3d d5af 7f3d 6e7e 983d 59d9 d9bd
00000300: 6998 ac3d 831f bcbd 2d29 bd3d 5e85 f3bb
00000310: 96c3 c4bd 40aa db3c 8543 cebc 14f9 c5bd
00000320: c313 2dbd bf8a db3b 101a a03d 6185 11bd
00000330: eda6 6f3d 8d11 103c dc52 33ba 943a a53c
00000340: 90ac 8dbd 9054 adbd b0a9 07bd bc2a c9bd
00000350: 0a77 40bd 10e8 9e3b ea2d 8ebd 2cbd 2fbd
00000360: 791b 25bd 5b1b 13bd 09dd a5bd 3c9c 68bc
00000370: a7c9 12bd 4770 f83b c81c 70bc f4d8 95bd
00000380: 26e0 64bd a24f 5c3a edb5 90bd 19ab 203b
00000390: c292 9c3a d02b 1d3d f79b 953c 0116 9a3d
000003a0: 17ec a63a cf29 9dbd f217 c43c 27a8 bcbd
000003b0: 7e58 10bd 8fa7 6abd 301a 84bd b1d7 79bd
000003c0: 4b8a 983d 315e 253d f95d c33b 596f f23d
000003d0: cee4 97bd a694 203d ef83 af3d c09e b83d
000003e0: b714 7cbd 32dc 5b3d f177 2abd 69ca 713c
000003f0: ab6c 28bd e618 dbbd 4a33 fbbd 09c1 bbbd

conv_block_2.0.bias f4 [10]
0.027496176 0.00023932909 0.018877812 0.06558716 -0.055859488 -0.05102745 0.050042823 0.0046093035
-0.01160115 -0.09259024
00000000: a93f e13c 6af4 7a39 a4a5 9a3c 9052 863d
00000010: ebcc 64bd 2902 51bd b4f9 4c3d a409 973b
00000020: c012 3ebc f49f bdbd

conv_block_2.2.weight f4 [10, 10, 3, 3]
0.07517392 -0.016520523 -0.031098224 -0.056477763 -0.031069241 0.041298985 -0.013767667 0.080070965
-0.016043555 -0.027496308 0.050769225 -0.0033446671 -0.034854133 0.02858568 0.076071866 0.008781897
0.061299615 0.050667092 0.016484577 0.02107301 0.020290572 -0.00040914502 0.077844895 0.08508925
0.025363049 -0.015390344 0.086042084 -0.097627796 0.06167782 0.03946211 0.052196175 -0.023358893
-0.0936565 0.06016689 -0.06088336 0.013208762 0.05658568 -0.103679426 0.002555603 -0.041141696
0.07062772 -0.06981021 0.06265331 0.064752325 0.054460574 0.10436551 0.023078673 -0.09727498
0.07173801 0.0006738668 0.010480763 -0.09985137 -0.031291164 -0.047319442 0.083900094 0.05636547
0.05891232 0.05336142 -0.08426948 -0.06437079 -0.060079962 -0.061623324 0.062619925 0.03300999
0.08028969 -0.009478162 -0.093831204 -0.027787616 0.07507568 0.07235359 0.0391901 -0.023859734
-0.09838595 -0.05663921 0.05495832 -0.04251764 0.05042132 0.028781064 -0.040486358 0.064202495
-0.033871427 -0.003501974 -0.04015176 -0.09998822 0.016995996 0.030460037 -0.0530716 0.06466297
-0.094557956 -0.10161206 -0.07894741 -0.051063843 -0.02595084 -0.034303263 0.03372455 -0.10599291
0.003512013 -0.0096174395 0.01722869 0.12408586 0.08980415 -0.031503074 -0.06913758 -0.0016150298
-0.027662981 0.057231646 0.0254595 0.10316425 0.029824205 -0.03128021 -0.0073009864 0.013635306
-0.025049806 0.07352983 -0.093356565 0.039382607 -0.07794239 -0.09784007 -0.027035037 0.04625866
0.06875752 0.020983307 -0.014145272 -0.01156691 -0.04811613 -0.014456411 -0.005247023 0.0928535
0.065943435 -0.08033863 0.002860125 -0.06192232 -0.0143659515 -0.08108277 0.029812036 -0.077391155
0.10017666 0.07695774 -0.07044129 -0.09449492 0.0011122695 -0.02356104 0.03580949 -0.075271085
0.044807795 -0.089417495 -0.05367728 -0.053204875 0.052792676 -0.0008276826 -0.09956928 -0.058271356
-0.04734432 -0.116884775 -0.0061203702 0.017956687 -0.038821984 -0.06051079 -0.01992411 -0.099981174
-0.07614159 -0.01681806 0.093643196 -0.032414228 0.0522471 -0.041483857 -0.028059714 -0.10034376
0.08732999 0.102639906 -0.00221394 0.06697386 0.08621862 0.052358635 0.0542878 -0.10034862
-0.099049985 -0.080905855 0.032970496 -0.09117655 -0.08465938 -0.05598818 -0.101977035 -0.0033577355
0.011217785 -0.06544718 0.06723359 -0.04235828 -0.03171141 0.10657756 0.116197824 0.0072950535
-0.047774326 -0.028979257 0.03224059 0.08494391 0.07385335 -0.022125034 -0.09942828 -0.09313899
-0.034490794 0.0013982463 -0.047955915 -0.08462438 0.012646261 -0.08389033 -0.08165865 -0.08120456
-0.024694419 0.0966105 0.04585262 -0.008376438 0.025470616 0.0468476 0.0049943547 -0.08085249
-0.058846075 -0.065354735 0.003467154 -0.09083709 -0.01486629 -0.033773754 0.10928431 0.091693126
0.06707284 0.009421 -0.032077823 0.03354137 -0.070770964 -0.045460988 -0.022325616 -0.018824756
-0.0973576 0.043789588 0.09428261 -0.050659783 0.03604933 -0.004446869 0.0037002913 0.013808678
0.09922318 0.022057809 -0.05868633 -0.05020373 0.037869606 0.019311784 -0.010981817 -0.027018195
-0.056629572 -0.052482475 -0.06753543 0.0052747596 0.029603355 0.08071662 -0.023813367 0.0075461194
00000000: c9f4 993d 0c56 87bc b4c1 febc 3a55 67bd
00000010: ec84 febc 2029 293d c891 61bc 3ffc a33d
00000020: c66d 83bc f03f e1bc 64f3 4f3d 3432 5bbb
00000030: 35c3 0ebd 842c ea3c 91cb 9b3d f2e1 0f3c
00000040: 4e15 7b3d 4c88 4f3d aa0a 873c 4ea1 ac3c
00000050: 6a38 a63c 8482 d6b9 256d 9f3d 4643 ae3d
00000060: 2bc6 cf3c c827 7cbc d536 b03d 15f1 c7bd
00000070: e2a1 7c3d 05a3 213d a8cb 553d 265b bfbc
00000080: fbce bfbd 8f71 763d d560 79bd 9069 583c
00000090: 63c6 673d e155 d4bd e77b 273b 3284 28bd
000000a0: 44a5 903d a8f8 8ebd 6150 803d de9c 843d
000000b0: 0d12 5f3d 96bd d53d 7c0f bd3c 1b38 c7bd
000000c0: 61eb 923d 6fa6 303a 82b7 2b3c e07e ccbd
000000d0: 2a2b 00bd 08d2 41bd d0d3 ab3d 7bdf 663d
000000e0: 0b4e 713d 8191 5a3d 7a95 acbd d5d4 83bd
000000f0: 6816 76bd bd68 7cbd e03e 803d 7c35 073d
00000100: ec6e a43d 4b4a 1bbc 932a c0bd dba2 e3bc
00000110: 47c1 993d 1e2e 943d cc85 203d 7d75 c3bc
00000120: 937e c9bd 84fe 67bd fa1b 613d fa26 2ebd
00000130: 9686 4e3d 44c6 eb3c 06d5 25bd 997c 833d
00000140: c4bc 0abd 6081 65bb 2c76 24bd a0c6 ccbd
00000150: 303b 8b3c 5487 f93c 9b61 59bd 056e 843d
00000160: 9aa7 c1bd fc19 d0bd 2eaf a1bd 5228 51bd
00000170: db96 d4bc 9481 0cbd c122 0a3d d012 d9bd
00000180: cd29 663b 7792 1dbc 2f23 8d3c ba20 fe3d
00000190: 3deb b73d 5e09 01bd 0198 8dbd 68af d3ba
000001a0: 7a9d e2bc bb6b 6a3d 7190 d03c c747 d33d
000001b0: e451 f43c ad1f 00bd 1d3d efbb 9e66 5f3c
000001c0: 4035 cdbc cf96 963d ba31 bfbd a84f 213d
000001d0: 43a0 9fbd 6060 c8bd 9578 ddbc b879 3d3d
000001e0: bed0 8c3d 2fe5 ab3c 92c1 67bc 2383 3dbc
000001f0: 6b15 45bd 95da 6cbc 38ef abbb fa29 be3d
00000200: 5a0d 873d 9488 a4bd ef70 3b3b 42a2 7dbd
00000210: 2b5f 6bbc b90e a6bd 5f38 f43c 417f 9ebd
00000220: 6c29 cd3d 059c 9d3d 8643 90bd 8d86 c1bd
00000230: 92c9 913a 1503 c1bc f9ac 123d ba27 9abd
00000240: 6188 373d 8520 b7bd b5dc 5bbd 5bed 59bd
00000250: 223d 583d d7f8 58ba fbea cbbd f2ad 6ebd
00000260: 1eec 41bd 4961 efbd 638d c8bb e719 933c
00000270: cd03 1fbd 2ada 77bd e337 a3bc eec2 ccbd
00000280: 1ff0 9bbd 07c6 89bc 01c8 bf3d c8c4 04bd
00000290: 0e01 563d faea 29bd 7cdd e5bc 0781 cdbd
000002a0: 11da b23d df34 d23d c017 11bb 9729 893d
000002b0: 6393 b03d 0276 563d e25c 5e3d 9483 cdbd
000002c0: b8da cabd f8b1 a5bd 120c 073d c5ba babd
000002d0: e661 adbd dd53 65bd 56d9 d0bd 740d 5cbb
000002e0: cdca 373c 2c09 86bd c4b1 893d e07f 2dbd
000002f0: d3e3 01bd 5645 da3d 20f9 ed3d 580b ef3b
00000300: 03af 43bd e865 edbc b50e 043d 13f7 ad3d
00000310: 6d40 973d 8f3f b5bc 0ea1 cbbd a8bf bebd
00000320: 3846 0dbd 5c45 b73a 6c6d 44bd 8c4f adbd
00000330: 4332 4f3c b1ce abbd a63c a7bd 944e a6bd
00000340: f34b cabc badb c53d f5cf 3b3d 543d 09bc
00000350: c1a7 d03c 45e3 3f3d afa7 a33b fe95 a5bd
00000360: 9508 71bd b4d8 85bd 3139 633b cc08 babd
00000370: bd91 73bc 5956 0abd 74d0 df3d 9bc9 bb3d
00000380: 7c5d 893d 8a5a 1a3c 0964 03bd ad62 093d
00000390: 5ef0 90bd 4d35 3abd 36e4 b6bc 6036 9abc
000003a0: 6c63 c7bd b65c 333d 3e17 c13d a280 4fbd
000003b0: 76a8 133d 0ab7 91bb 9680 723b cb3d 623c
000003c0: 8635 cb3d 94b2 b43c 1461 70bd 6da2 4dbd
000003d0: 291d 1b3d bf33 9e3c 14ed 33bc 4355 ddbc
000003e0: 69f4 67bd ddf7 56bd 0450 8abd e4d7 ac3b
000003f0: bc82 f23c c14e a53d 4014 c3bc 7045 f73b

conv_block_2.2.bias f4 [10]
0.06126096 0.08151947 0.047136467 -0.09601737 0.003439251 -0.037068047 -0.029631563 0.068624355
-0.041836154 -0.07549103
00000000: c6ec 7a3d aef3 a63d 2b12 413d c1a4 c4bd
00000010: 0f65 613b aad4 17bd e4bd f2bc ed8a 8c3d
00000020: 635c 2bbd 0b9b 9abd

classifier.1.weight f4 [3, 1690]
-0.022353109 0.012551154 -0.0013775241 0.021259915 0.0019889122 -0.02561231 0.0030707025 0.019434666
0.0121856695 0.0045613493 -0.021274077 -0.017414976 0.01353956 -0.018994624 0.0028254022 -0.005902728
0.0053564836 -0.0012461307 -0.02132407 -0.012597437 0.018549547 0.0002467969 0.009726265 -0.014914418
0.016448038 -0.007998368 -0.011064397 0.0021895152 -0.011380566 -0.012395902 -0.006159198 -0.0035433213
-0.016057162 0.0061365464 -0.025740065 0.012797438 0.020039488 0.001289003 -0.008393244 -0.024904937
0.009082268 0.017534917 0.018318782 -8.024816e-05 0.006311615 0.021651868 0.0019229439 -0.013594348
-0.02505571 0.008663019 0.007253166 0.018906588 -0.014706354 0.008441801 -0.009978554 -0.0079899635
0.012233536 -0.0234816 0.016949823 0.009945399 -0.015784327 0.01100735 -0.0074498137 0.00077520934
-0.008778436 -0.026002577 -0.004352684 0.010233481 -0.004639435 -0.013613522 -0.00032707924 0.0037085027
-0.008112809 -0.020313164 -0.014623181 -0.0053057587 0.0073649115 0.019938467 -0.0017331274 0.006860298
0.012264612 -0.012375709 -0.010015018 0.014934642 0.016595451 0.004329294 -0.02045553 0.012284163
-0.021680022 0.010630075 0.0012814844 0.005744961 -0.025574533 -0.010182298 0.008695462 0.01713299
-0.008002931 0.020905107 -0.006437405 -0.016125422 -0.01218171 -0.00018888044 -0.005951806 0.010194508
-0.015827928 -0.008701308 -0.025621792 0.018410666 -0.006073879 -0.020089401 -0.0018890745 -0.0010290196
0.005495881 -0.004233465 0.013640434 -0.01014752 -0.0093145445 -0.008315946 0.0025465766 0.017944269
-0.0023533797 0.017471446 0.01803045 -0.013613167 -0.0032280597 -0.013186699 0.0082863765 -0.010326975
0.0055103227 -0.00091518933 -0.018635657 -0.018559007 -0.025616113 -0.015029043 0.005225439 -1.6193811e-05
0.016705815 -0.023068376 -0.0025786725 -0.02367391 -0.0019389216 0.006352984 -0.02480794 0.018337077
-0.010381073 0.01909458 -0.006022138 0.011830679 0.02005018 -0.010826602 -0.0079323305 0.010762212
-0.023058634 0.011705606 -0.01849529 0.019208256 -0.019167215 -0.013222517 0.015151078 -0.013383173
0.018250473 0.014138809 0.01973673 -0.0261091 -0.0023587488 -0.011124226 0.002266987 -0.021941908
0.006104634 -0.009672695 -0.02166834 -0.03265023 0.0038865486 -0.01628409 0.010558022 -0.004369355
-0.0021900765 -0.013987018 -0.013756451 -0.017938621 -0.029646797 0.008198743 -0.02323134 0.005188207
-0.018043958 0.0049337577 0.012672129 -0.022519667 0.0111233955 -0.010233918 -0.03034932 -0.0013710982
0.003915497 0.012913752 -0.030951474 0.014341445 0.008473571 0.0133786425 0.0032418482 -0.023472333
0.006586347 0.011361012 -0.022461489 -0.018120637 0.005350448 0.0090074 0.0072501246 0.010198912
-0.023278605 -0.017711349 -0.023346625 -0.0013857053 -0.0082565835 -0.034951404 -0.01823744 -0.034623943
-0.039209325 0.0050572786 -0.02818596 -0.0022458078 -0.014629193 -0.017167043 -0.014395448 0.0034448467
-0.019752761 0.004353735 -0.0037814742 -0.0014916336 -0.037628688 -0.027951509 -0.038333867 -0.023233553
-0.02167126 -0.008728514 0.010394474 -0.0029147384 -0.03272203 -0.030553736 0.0017288406 -0.014469439
-0.009868925 -0.027478846 -0.017280214 -0.0095534995 -0.03280369 -0.0007742612 -0.0024556592 -0.027299006
-0.024389064 -0.0221062 -0.011261905 -0.025485553 0.005353039 -0.040514957 -0.029187802 -0.028512917
00000000: de1d b7bc 5ba3 4d3c 0a8e b4ba 4629 ae3c
00000010: 6958 023b e8d0 d1bc d73d 493b 7335 9f3c
00000020: 67a6 473c 5f77 953b f946 aebc daa9 8ebc
00000030: 08d5 5d3c 9d9a 9bbc 622a 393b ac6b c1bb
00000040: 7185 af3b 3555 a3ba d1af aebc 7b65 4ebc
00000050: 38f5 973c 8564 8139 ea5a 1f3c 9a5b 74bc
00000060: 09be 863c 960b 03bc 7247 35bc f87d 0f3b
00000070: 8e75 3abc 2e18 4bbc 19d3 c9bb 1137 68bb
00000080: 4f8a 83bc 1515 c93b d4dc d2bc 58ac 513c
00000090: da29 a43c c3f3 a83a d183 09bc 7005 ccbc
000000a0: cbcd 143c 63a5 8f3c 4511 963c e74a a8b8
000000b0: aad1 ce3b 425f b13c 4a0b fc3a d4ba 5ebc
000000c0: a241 cdbc 56ef 0d3c f7ab ed3b fde1 9a3c
000000d0: ebf2 70bc 7b4f 0a3c 177d 23bc 56e8 02bc
000000e0: 2b6f 483c 7c5c c0bc 5bda 8a3c 07f2 223c
000000f0: 224e 81bc 2c58 343c 911d f4bb 6b37 4b3a
00000100: 6ed3 0fbc 5b03 d5bc f6a0 8ebb 55aa 273c
00000110: 6706 98bb 400b 5fbc d57b abb9 5a0a 733b
00000120: 96eb 04bc cb67 a6bc 1196 6fbc eedb adbb
00000130: 5b55 f13b ff55 a33c 1b2a e3ba 5acc e03b
00000140: 83f1 483c 7cc3 4abc 0816 24bc 6eb0 743c
00000150: 2ff3 873c c0dc 8d3b 5b92 a7bc 8443 493c
00000160: 4d9a b1bc c429 2e3c 7bf7 a73a 3a40 bc3b
00000170: af81 d1bc a7d3 26bc 6977 0e3c 7c5a 8c3c
00000180: ba1e 03bc 3041 ab3c def0 d2bb 7619 84bc
00000190: cc95 47bc 350e 46b9 5e07 c3bb de06 273c
000001a0: 92a9 81bc ee8f 0ebc cbe4 d1bc f7d1 963c
000001b0: 6407 c7bb 8792 a4bc d29a f7ba 2be0 86ba
000001c0: cb16 b43b e1b8 8abb 207c 5f3c c941 26bc
000001d0: 089c 18bc 9b3f 08bc 77e4 263b dcff 923c
000001e0: 293b 1abb 4720 8f3c 98b4 933c c309 5fbc
000001f0: db8d 53bb 060d 58bc 95c3 073c 7932 29bc
00000200: f08f b43b 51e9 6fba cea9 98bc 0f09 98bc
00000210: e2d8 d1bc 603c 76bc 293a ab3b f2d7 87b7
00000220: a2da 883c e4f9 bcbc f2fe 28bb caef c1bc
00000230: 6a23 feba b12c d03b 053a cbbc a337 963c
00000240: 6015 2abc 3d6c 9c3c 5b55 c5bb 77d5 413c
00000250: 4640 a43c 0f62 31bc 9bf6 01bc fd53 303c
00000260: 76e5 bcbc dfc8 3f3c 6f83 97bc a25a 9d3c
00000270: 9004 9dbc 42a3 58bc 3a3c 783c 1945 5bbc
00000280: 0482 953c 77a6 673c ecae a13c c0e2 d5bc
00000290: 3d95 1abb 6342 36bc bb91 143b 84bf b3bc
000002a0: 6209 c83b 397a 1ebc cd81 b1bc 3fbc 05bd
000002b0: 77b5 7e3b 3666 85bc 8efb 2c3c ce2c 8fbb
000002c0: 6387 0fbb ce29 65bc bd62 61bc 04f4 92bc
000002d0: d7dd f2bc 0554 063c a74f bebc d601 aa3b
000002e0: ecd0 93bc 5cab a13b c39e 4f3c 2a7b b8bc
000002f0: e73e 363c 2aac 27bc 239f f8bc 6cb6 b3ba
00000300: 924d 803b 3494 533c f28d fdbc 61f8 6a3c
00000310: bcd4 0a3c 1832 5b3c 3075 543b 0d49 c0bc
00000320: 48d2 d73b 8a23 3a3c 2801 b8bc bb71 94bc
00000330: d052 af3b c693 133c 7492 ed3b 5619 273c
00000340: c6b2 bebc 6417 91bc 6c41 bfbc 8ea0 b5ba
00000350: 9f46 07bc 3429 0fbd af66 95bc d6d1 0dbd
00000360: f599 20bd 87b7 a53b 3ee6 e6bc 672e 13bb
00000370: 48af 6fbc e6a1 8cbc e3da 6bbc f0c2 613b
00000380: 8bd0 a1bc c7a9 8e3b 9cd2 77bb eb82 c3ba
00000390: 8a20 1abd 90fa e4bc f903 1dbd 4b54 bebc
000003a0: ed87 b1bc 0b02 0fbc 954d 2a3c 3205 3fbb
000003b0: 8907 06bd d44b fabc 449a e23a 3a11 6dbc
000003c0: 46b1 21bc 511b e1bc 3c8f 8dbc 4886 1cbc
000003d0: 295d 06bd caf7 4aba 20ef 20bb 2aa2 dfbc
000003e0: 93cb c7bc 1018 b5bc da83 38bc 14c7 d0bc
000003f0: 8c68 af3b 03f3 25bd 421b efbc ec93 e9bc

classifier.1.bias f4 [3]
0.007500667 -0.008396392 -0.02040657
00000000: 28c8 f53b 0591 09bc ae2b a7bc
