models/05_pytorch_going_modular_tinyvgg.pth (torch, 36467 bytes, 10 tensors)

conv_block_1.0.weight f4 [10, 3, 3, 3]
0.018902909 0.043638777 -0.13327207 -0.14729425 -0.10457624 0.005060356 0.0024080588 0.0058042137
0.10300471 0.010197323 -0.16676562 0.11573631 -0.058823686 0.119673304 0.116829015 -0.1019018
-0.02737919 -0.102053024 0.059524797 0.17918007 0.11070429 -0.032203488 -0.09092997 0.07717985
0.0685986 -0.08345495 -0.0744599 -0.13791712 0.10313105 0.0065318896 0.10447966 0.089092225
0.09688145 -0.17914748 0.16471596 0.008364045 0.024327703 -0.13214228 -0.08049383 -0.14860635
-0.08856291 0.121953 0.045639552 0.026201606 -0.16008359 -0.1927807 -0.10697668 -0.08199921
0.12597395 0.085336685 -0.08846655 0.11608699 0.038151003 -0.099053904 0.16834453 0.056569844
0.15599868 -0.17637716 -0.016536811 -0.1725543 -0.121428676 -0.032709826 0.015011866 0.050377984
0.013115989 -0.117476545 -0.07561922 -0.037947953 -0.17858954 -0.13043612 -0.101319395 -0.025780186
0.09551476 0.16209613 0.046255298 -0.00066391507 0.12526032 -0.055911295 0.13396004 0.069905095
-0.06927705 -0.012210375 0.025054997 -5.151832e-05 -0.021340119 -0.026508583 -0.0013902619 -0.13926114
0.053487044 0.06832483 -0.03888128 -0.14079683 0.010860191 -0.025915066 -0.118124545 -0.19197634
0.1515342 -0.022352958 -0.18742599 0.014639803 -0.15886395 -0.06471708 -0.061094996 0.10541374
-0.09783131 0.0016389657 -0.14189485 0.05383374 0.13862437 -0.1557087 0.07857881 0.0971465
-0.057582702 0.08469425 0.008931479 0.06599485 0.008444324 0.18248165 0.1395651 0.16786653
-0.05800732 -0.095738456 -0.17702182 -0.15209456 -0.18715708 -0.08617333 -0.091136195 0.109459646
-0.041749153 0.18406852 -0.102668814 -0.06008366 0.06948702 0.15005001 -0.10388563 -0.15870294
-0.08946833 0.06241683 0.1631568 -0.1262246 0.10583114 -0.05752447 -0.10108888 -0.063453354
0.1355756 0.041964807 -0.1568527 0.073723085 0.072544746 -0.13604298 0.053068917 -0.059815332
-0.15431456 -0.064803734 0.021750193 0.0046035233 0.19243637 0.17134772 0.09126485 -0.06674304
0.114946164 -0.047901068 -0.17387526 0.013093055 0.16920677 -0.078238346 -0.021473717 -0.11416333
-0.02057012 0.06669262 -0.109133884 -0.027504802 -0.003944185 0.10421561 -0.16527157 -0.18059833
0.17760013 0.18384537 0.1785761 0.15237059 -0.14836486 0.007942998 -0.14486724 -0.04459669
-0.08968213 0.021822723 0.16223283 0.089710586 0.15033041 0.18910708 0.08217244 -0.11501097
0.10563729 -0.039149705 0.17132114 0.16319548 -0.06485114 -0.019030316 -0.05457004 0.18180613
0.1641399 0.110887066 -0.095632605 0.06720855 -0.15348662 0.031694192 0.10156925 0.18363957
-0.054831807 -0.050378215 -0.047381774 0.041675117 0.055691678 0.08303612 0.06123849 -0.03648806
-0.041122183 0.14202483 -0.18537417 -0.15256473 0.100264356 -0.01808609 0.02926825 0.0036579818
0.12255262 -0.13068034 -0.120553285 -0.013693154 -0.072750725 0.07307045 0.12193869 -0.01852858
-0.15767969 -0.12469289 0.033174545 -0.017701536 -0.00018447638 -0.07543467 -0.088677615 0.13682227
-0.039116874 -0.028918803 0.0484744 0.12899631 -0.00074935565 0.13237926 -0.073343806 0.09440389
-0.11775721 -0.13242027 -0.14618896 -0.11931547 0.039836377 -0.109074175 0.05110694 -0.11705076
00000000: 46da 9a3c 93be 323d 7978 08be 4ed4 16be
00000010: 112c d6bd 58d1 a53b 86d0 1d3b 4631 be3b
00000020: 22f4 d23d ac12 273c 9bc4 2abe 2907 ed3d
00000030: 1bf1 70bd 4717 f53d 0d44 ef3d e4b1 d0bd
00000040: 534a e0bc 2d01 d1bd 46d0 733d fb7a 373e
00000050: eeb8 e23d cee7 03bd 7e39 babd 7810 9e3d
00000060: 6c7d 8c3d 6eea aabd 6f7e 98bd 253a 0dbe
00000070: 5f36 d33d 7609 d63b 6ff9 d53d fc75 b63d
00000080: c869 c63d 7072 37be 4dab 283e 5909 093c
00000090: e44a c73c 4e50 07be f3d9 a4bd 432c 18be
000000a0: 7960 b5bd 7fc2 f93d 8af0 3a3d c0a4 d63c
000000b0: f4ec 23be 4e68 45be 9716 dbbd 34ef a7bd
000000c0: 51ff 003e 00c5 ae3d f32d b5bd 04bf ed3d
000000d0: 3a44 1c3d c6dc cabd 8262 2c3e c8b5 673d
000000e0: 1ebe 1f3e 379c 34be 3578 87bc 13b2 30be
000000f0: 99af f8bd bdfa 05bd 54f4 753c 2559 4e3d
00000100: 72e4 563c 8b97 f0bd 40de 9abd 506f 1bbd
00000110: 2de0 36be 0c91 05be 8b80 cfbd f830 d3bc
00000120: 3e9d c33d 87fc 253e 3276 3d3d 960a 2eba
00000130: 3e44 003e 3e03 65bd d22c 093e 672a 8f3d
00000140: 20e1 8dbd 060e 48bc 2340 cd3c 6015 58b8
00000150: 79d1 aebc 8728 d9bc 7339 b6ba 799a 0ebe
00000160: 3b15 5b3d e3ed 8b3d fa41 1fbd 0b2d 10be
00000170: f1ee 313c d54b d4bc 48eb f1bd 7295 44be
00000180: c82b 1b3e 8d1d b7bc 99ec 3fbe c9db 6f3c
00000190: 3bad 22be 638a 84bd bf3e 7abd 29e3 d73d
000001a0: c85b c8bd 90d2 d63a e24c 11be c580 5c3d
000001b0: 8cf3 0d3e 1a72 1fbe eded a03d bff4 c63d
000001c0: d7db 6bbd 2e74 ad3d 5755 123c 4f28 873d
000001d0: 105a 0a3c 78dc 3a3e 27ea 0e3e 34e5 2b3e
000001e0: 1599 6dbd 8612 c4bd 3545 35be adbe 1bbe
000001f0: 1ba6 3fbe a57b b0bd 9da5 babd 612c e03d
00000200: 2901 2bbd 757c 3c3e 0744 d2bd 491a 76bd
00000210: 364f 8e3d b6a6 193e fdc1 d4bd 0683 22be
00000220: 2c3b b7bd caa8 7f3d 9412 273e 0641 01be
00000230: ffbd d83d c79e 6bbd b007 cfbd d5f3 81bd
00000240: 55d4 0a3e 4ae3 2b3d ff9d 20be 21fc 963d
00000250: 5792 943d da4e 0bbe cb5e 593d ec00 75bd
00000260: a304 1ebe d2b7 84bd 762d b23c 27d9 963b
00000270: 0a0e 453e c775 2f3e 11e9 ba3d 93b0 88bd
00000280: e568 eb3d e933 44bd 5b0c 32be 4184 563c
00000290: 8a44 2d3e 6d3b a0bd a6e9 afbc 77ce e9bd
000002a0: ab82 a8bc 2496 883d 9681 dfbd c051 e1bc
000002b0: 393e 81bb fe6e d53d f33c 29be c5ee 38be
000002c0: cfdc 353e f641 3c3e a7dc 363e 0907 1c3e
000002d0: f5ec 17be 5923 023c 1458 14be 05ab 36bd
000002e0: 44ab b7bd 91c5 b23c 5d20 263e 2fba b73d
000002f0: 37f0 193e 49a5 413e 064a a83d df8a ebbd
00000300: 5d58 d83d 715b 20bd cf6e 2f3e b71c 273e
00000310: add0 84bd 77e5 9bbc d684 5fbd 632b 3a3e
00000320: 4a14 283e c218 e33d 07db c3bd a3a4 893d
00000330: 992b 1dbe c5d1 013d 8a03 d03d 030c 3c3e
00000340: 5197 60bd 6359 4ebd 6413 42bd 87b3 2a3d
00000350: f51c 643d d70e aa3d 36d5 7a3d 8174 15bd
00000360: bc6f 28bd f56e 113e bad2 3dbe ee39 1cbe
00000370: 6657 cd3d 4829 94bc f8c3 ef3c c0ba 6f3b
00000380: defc fa3d 11d1 05be a4e4 f6bd 4059 60bc
00000390: 55fe 94bd f6a5 953d feba f93d 40c9 97bc
000003a0: c976 21be fc5e ffbd 08e2 073d d002 91bc
000003b0: 0070 41b9 7e7d 9abd 9c9c b5bd 231b 0c3e
000003c0: 0439 20bd 20e7 ecbc 188d 463d 9c17 043e
000003d0: 6870 44ba 6e8e 073e 4735 96bd d456 c13d
000003e0: b12a f1bd 2e99 07be 8fb2 15be ab5b f4bd
000003f0: 782b 233d 4862 dfbd 8355 513d 4fb8 efbd

conv_block_1.0.bias f4 [10]
0.20779748 0.18547568 -0.08766122 -0.0071122777 0.10776282 -0.14857359 0.047102474 0.08538397
-0.16379708 0.20842206
00000000: ddc8 543e 56ed 3d3e ba87 b3bd 1c0e e9bb
00000010: c1b2 dc3d ad23 18be 86ee 403d cadd ae3d
00000020: 6cba 27be 986c 553e

conv_block_1.2.weight f4 [10, 10, 3, 3]
-0.022726834 0.05881632 0.10632323 0.045662694 -0.03787789 -0.025521513 0.08725094 -0.010933312
0.083329536 -0.07399494 -0.033220865 0.07923817 0.008378408 -0.0636495 0.01596126 0.050280306
0.026509095 -0.022565257 -0.015906371 0.03573987 -0.010333144 -0.07645809 -0.018700082 0.048051517
-0.1059209 -0.030988092 0.04978203 0.0669296 -0.008066621 -0.05413876 0.030597774 -0.08336189
-0.04878935 -0.06284813 -0.090320885 -0.015197791 0.0354295 -0.03138477 -0.07580972 -0.0030763648
0.07119499 0.033307116 -0.03939734 0.065201335 -0.0531117 0.06573222 0.09088964 0.09541688
-0.07283012 -0.028540267 -0.013026405 -0.009582999 -0.03133052 -0.07751676 0.085880086 0.0009031369
0.08689307 0.0770838 0.06842129 0.0063973316 0.06765897 0.07119115 -0.01365756 -0.015930763
0.09306822 -0.08276003 -0.02067481 0.05849515 0.057135455 -0.074851364 -0.014617149 0.013942435
0.020060487 0.10194857 -0.05463077 0.065760486 -0.018127859 -0.036649518 -0.003400296 0.03456775
0.0186086 0.09833791 0.08396808 -0.035140075 0.0005638918 -0.011052508 0.10726639 -0.040038876
-0.021674667 -0.082300104 0.006509523 0.053582996 -0.07936027 -0.08332815 0.0028154568 -0.06772125
0.00089075183 0.064157814 0.0014476967 -0.0417727 -0.014494992 -0.0029707337 0.10098893 -0.018448519
-0.03900471 0.08401291 0.026203921 -0.028645363 0.009968285 -0.00026538328 0.052423045 -0.09031088
0.057243258 0.033065192 0.018698195 -0.06932842 0.025586883 0.030558977 0.010896961 0.033190772
0.025941309 0.066064045 0.04131163 0.09185961 0.1005637 0.102920294 -0.08235781 0.04857316
0.014459052 0.06441838 -0.086040236 0.004744443 -0.018264934 -0.028666092 0.06437183 0.0898334
-0.07214575 -0.070819855 -0.0131613985 -0.001599181 0.06555848 0.029298669 -0.051327102 0.072794095
-0.007725682 0.086400874 0.0068509597 0.035207454 0.07532903 -0.04710593 -0.026401188 -0.010937175
-0.062370505 0.05055828 0.06981886 0.081941545 -0.03968804 -0.012402129 -0.015550474 0.033621464
0.037341986 0.055934664 0.07653514 -0.06866588 -0.05275259 -0.049274854 0.031013615 0.09634202
-0.03825122 0.03406378 -0.07211098 -0.05117689 -0.109457046 -0.046394493 0.067337625 -0.031728245
-0.0730303 0.058336332 0.025881309 0.0309344 0.08241995 0.05195752 0.019438319 0.05783677
-0.0753939 -0.10542657 0.0030014021 0.086410396 0.05663542 -0.01804986 0.06866478 0.012047009
-0.04577341 -0.07343506 0.08138195 0.09244969 -0.016310886 0.047660906 -0.08369291 -0.00017563926
-0.041538805 -0.08960439 0.08919419 -0.05670596 0.08600017 -0.104145855 -0.10155867 0.03585822
0.001290106 -0.0691597 -0.030355658 0.086138666 -0.08163581 -0.011525624 0.09330951 0.024573058
0.05751495 -0.038798507 0.027787568 -0.10431265 -0.08807154 0.02867398 -0.07517164 -0.07536201
-0.0410668 0.09395183 -0.0067219976 0.015900783 0.039281942 0.076204166 0.048373237 -0.0050700214
0.048817452 -0.004522838 -0.08477297 0.06684328 -0.088788174 0.03708106 0.10970069 0.06439257
-0.094732724 -0.09765358 0.08924588 0.04654473 0.01337583 -0.060324453 0.03621026 0.052345436
-0.08567892 0.08444829 -0.007443143 0.06976855 -0.0046382844 -0.09980455 -0.02569431 -0.03582243
00000000: a02d babc 62e9 703d febf d93d ce08 3b3d
00000010: d925 1bbd 7e12 d1bc 9fb0 b23d a221 33bc
00000020: ada8 aa3d a98a 97bd 9a12 08bd 9f47 a23d
00000030: 9745 093c ab5a 82bd 30c1 823c b9f2 4d3d
00000040: 9a29 d93c c6da b8bc 144e 82bc f863 123d
00000050: 594c 29bc 0f96 9cbd ea30 99bc abd1 443d
00000060: 0fed d8bd bdda fdbc 3ee8 4b3d 6312 893d
00000070: dc29 04bc 9bc0 5dbd 2fa8 fa3c a3b9 aabd
00000080: 57d7 47bd 85b6 80bd 28fa b8bd 2800 79bc
00000090: 861e 113d 518d 00bd 2042 9bbd d69c 49bb
000000a0: aece 913d 0b6d 083d 1b5f 21bd 4788 853d
000000b0: a78b 59bd 9d9e 863d 5924 ba3d ed69 c33d
000000c0: f527 95bd 47cd e9bc b46c 55bc 0302 1dbc
000000d0: 6e54 00bd 1bc1 9ebd e6e1 af3d 7ec0 6c3a
000000e0: fef4 b13d 1dde 9d3d 7620 8c3d b5a0 d13b
000000f0: c990 8a3d aacc 913d f5c3 5fbc 3b81 82bc
00000100: 8d9a be3d 177e a9bd 385e a9bc 9c98 6f3d
00000110: de06 6a3d ac4b 99bd c47c 6fbc d06e 643c
00000120: e455 a43c 69ca d03d 84c4 5fbd 6fad 863d
00000130: e080 94bc ce1d 16bd 80d7 5ebb ea96 0d3d
00000140: 1071 983c 6365 c93d 75f7 ab3d 0aef 0fbd
00000150: 23d2 133a 9415 35bc 7bae db3d ceff 23bd
00000160: 128f b1bc f58c a8bd d64d d53b d879 5b3d
00000170: a387 a2bd f3a7 aabd 8783 383b 70b1 8abd
00000180: 5881 693a 2c65 833d a4c0 bd3a da19 2bbd
00000190: 677c 6dbc a4b0 42bb 49d3 ce3d 5921 97bc
000001a0: 67c3 1fbd f60e ac3d 9ba9 d63c aea9 eabc
000001b0: 0552 233c 2423 8bb9 8cb9 563d e9f4 b8bd
000001c0: e877 6a3d 5e6f 073d f52c 993c 0ffc 8dbd
000001d0: 959b d13c d256 fa3c 2b89 323c 0cf3 073d
000001e0: de82 d43c 964c 873d 6236 293d e420 bc3d
000001f0: 57f4 cd3d e0c7 d23d 36ab a8bd a6f4 463d
00000200: a9e5 6c3c c9ed 833d dd35 b0bd 4677 9b3b
00000210: 58a0 95bc 27d5 eabc 61d5 833d 93fa b73d
00000220: 27c1 93bd 000a 91bd e8a2 57bc 9c9b d1ba
00000230: 8643 863d c303 f03c 5e3c 52bd 1215 953d
00000240: b827 fdbb f1f2 b03d 047e e03b b135 103d
00000250: 1b46 9a3d 26f2 40bd 4e47 d8bc d631 33bc
00000260: 3778 7fbd 3316 4f3d 31fd 8e3d f8d0 a73d
00000270: ed8f 22bd 4d32 4bbc 6ac7 7ebc a9b6 093d
00000280: e9f3 183d bf1b 653d 75be 9c3d b2a0 8cbd
00000290: 1a13 58bd 6ed4 49bd 4410 fe3c f74e c53d
000002a0: 50ad 1cbd 7686 0b3d ecae 93bd dc9e 51bd
000002b0: 042b e0bd 2708 3ebd 4fe8 893d 7af5 01bd
000002c0: e990 95bd 14f2 6e3d 0a05 d43c 246a fd3c
000002d0: cacb a83d 69d1 543d 1c3d 9f3c 40e6 6c3d
000002e0: 1e68 9abd e3e9 d7bd 2cb3 443b eff7 b03d
000002f0: 8bfa 673d 4ddd 93bc 1fa0 8c3d d160 453c
00000300: e67c 3bbd 1f65 96bd 94ab a63d 4356 bd3d
00000310: 689e 85bc 1538 433d 3067 abbd ce2b 38b9
00000320: 9824 2abd 8282 b7bd 72ab b63d 8244 68bd
00000330: db20 b03d 6c4a d5bd fefd cfbd 12e0 123d
00000340: c618 a93a 9aa3 8dbd 6eac f8bc 7869 b03d
00000350: ad30 a7bd f9d5 3cbc 0e19 bf3d 704d c93c
00000360: cc94 6b3d 2feb 1ebd c1a2 e33c dfa1 d5bd
00000370: da5e b4bd b2e5 ea3c 97f3 99bd 6657 9abd
00000380: a935 28bd d169 c03d 3444 dcbb 5c42 823c
00000390: 1ae6 203d ee10 9c3d 0423 463d 6c22 a6bb
000003a0: cff4 473d 5134 94bb 739d adbd 21e5 883d
000003b0: 93d6 b5bd 4fe2 173d c1aa e03d 40e0 833d
000003c0: 3b03 c2bd 9afe c7bd 8bc6 b63d b0a5 3e3d
000003d0: 4c26 5b3c c616 77bd 3651 143d 2b68 563d
000003e0: 6e78 afbd 3af3 ac3d 9ce5 f3bb d0e2 8e3d
000003f0: c0fc 97bb 5466 ccbd e07c d2bc 8aba 12bd

conv_block_1.2.bias f4 [10]
-0.031164994 -0.0791115 0.0692218 0.033569865 0.0121898595 -0.042765945 -0.027896903 0.06585227
0.055643372 -0.024716595
00000000: bb4d ffbc 3605 a2bd 29c4 8d3d 8e80 093d
00000010: fab7 473c 582b 2fbd 0c88 e4bc 8edd 863d
00000020: 4eea 633d 757a cabc

conv_block_2.0.weight f4 [10, 10, 3, 3]
0.070049964 -0.050460074 0.060576335 -0.02483933 0.06823528 -0.065177545 -0.02055007 0.066862956
-0.04741292 0.022941565 0.03189156 -0.0039573517 0.039870903 -0.029755658 -0.07594632 -0.050309017
0.020105733 0.03657615 -0.03421828 -0.017003875 0.09344732 -0.024472209 0.049179167 0.04579004
0.10637469 0.019528737 0.06518645 0.038948283 -0.07141729 0.0066561755 0.054684702 -0.029592227
-0.03674571 0.03004435 0.051336814 -0.04667773 -0.02968395 -0.09091317 0.082322605 0.0030786744
0.10404806 0.037815098 -0.05377396 0.006547607 0.00050917885 -0.061697174 0.034184877 -0.026622001
0.0004062375 0.093366064 0.08002644 0.09057084 -0.07683034 0.08908756 0.11604694 -0.011907084
-0.011059778 0.009918106 0.0063353665 -0.051324926 -0.02343868 0.018547002 -0.022876512 0.03282162
-0.041917756 -0.02404106 0.060692865 0.023193866 0.100237496 0.08888516 0.076943606 0.09426549
-0.09244516 0.09607802 0.048289012 -0.09735911 0.097831324 -0.07620798 -0.03322594 -0.032874674
-0.07030364 -0.03788986 0.097976476 -0.029601047 -0.049311776 0.059829928 -0.03646357 -0.087213725
0.09304609 -0.061121065 -0.0916704 -0.111439876 0.032320235 0.052969437 -0.10611651 0.027101194
0.051095445 0.011563086 -0.079082936 -0.08588231 0.037963636 -0.024041634 0.04247148 -0.03955901
0.04899025 -0.10009186 -0.037185982 0.06417012 0.069023654 -0.08498253 -0.062249172 0.03414933
0.024336426 0.008936919 0.054089725 -0.076998636 0.00599694 -0.04112772 0.02037387 0.052121717
0.082627855 0.0055391192 -0.097376786 0.0304976 0.09937719 0.01404095 -0.005758008 -0.08166654
0.00085713813 -0.10407243 0.00709321 -0.07838877 -0.074020386 0.03085933 0.01983925 -0.068041295
0.10104615 -0.062219534 0.031404316 -0.009702316 0.0027324357 -0.045281153 -0.010698077 0.048517827
0.031211013 0.045037955 -0.050491337 -0.06943279 -0.012661204 0.0038278583 0.059985764 -0.071587004
-0.036371164 0.06819878 -0.07337988 -0.086137354 0.09862159 -0.010669793 0.0755901 -0.06635109
0.009442235 0.02799641 -0.07301645 0.08688138 -0.082010634 -0.014126071 -0.030309198 -0.05951518
0.046811316 0.098803364 -0.027819252 0.0842661 0.048169777 0.063361354 0.089071855 -0.053670347
0.09435798 -0.058239777 0.0672377 0.08320416 -0.064013906 0.05437698 0.056826685 -0.0008428869
0.02103684 -0.09272851 0.025342004 0.059293058 -0.01619977 -0.060645625 -0.051157407 -0.07761245
-0.011670555 0.03218122 -0.084314995 -0.0034278445 -0.08692806 -0.020796115 0.042328034 0.07840923
-0.10415012 -0.02955862 0.0027854564 0.024468483 0.06770386 0.064417146 0.011109276 -0.00094479683
0.003594151 -0.041663144 0.05955414 0.104438946 -0.012827537 0.07580021 0.01117 -0.043373074
-0.086390644 -0.08900272 -0.110769995 0.026410675 0.073595405 -0.08949382 -0.017399596 -0.11428637
0.06306465 -0.08588858 -0.019618124 0.015213671 -0.09676306 0.008474141 -0.08307057 0.075576305
0.09169469 0.041685812 -0.06166611 -0.057710785 0.07769682 -0.03184908 -0.104367845 -0.08342065
0.04442254 -0.113208376 0.012063131 0.020560762 0.053249735 0.08306604 -0.04598282 0.09351426
0.06710102 0.022006694 0.051403344 0.09069724 0.05460584 0.10326906 0.072893 0.07262576
00000000: 5b76 8f3d 39af 4ebd e41e 783d da7b cbbc
00000010: f0be 8b3d ce7b 85bd 9f58 a8bc 72ef 883d
00000020: 0d34 42bd f3ef bb3c b9a0 023d acac 81bb
00000030: ac4f 233d 23c2 f3bc bf89 9bbd d410 4ebd
00000040: c7b4 a43c e0d0 153d 7828 0cbd b64b 8bbc
00000050: 4f61 bf3d f179 c8bc 1870 493d 568e 3b3d
00000060: f9da d93d bbfa 9f3c 7980 853d 3c88 1f3d
00000070: 3a43 92bd 0c1c da3b 11fd 5f3d 666b f2bc
00000080: ab82 16bd 921f f63c 8d46 523d 2631 3fbd
00000090: c12b f3bc af30 babd c198 a83d 96c3 493b
000000a0: 2617 d53d 01e4 1a3d 1542 5cbd 4f8d d63b
000000b0: 6a7a 053a 2db6 7cbd 7105 0c3d 6216 dabc
000000c0: 46fc d439 b536 bf3d e7e4 a33d 347d b93d
000000d0: 3a59 9dbd 8a73 b63d 05aa ed3d ee15 43bc
000000e0: 1234 35bc 8d7f 223c e898 cf3b 163a 52bd
000000f0: 7a02 c0bc e2ef 973c 8667 bbbc f76f 063d
00000100: f4b1 2bbd c2f1 c4bc 1599 783d 1001 be3c
00000110: 5149 cd3d 6c09 b63d 9c94 9d3d 440e c13d
00000120: e353 bdbd 8ec4 c43d b3ca 453d 3764 c7bd
00000130: ca5b c83d ee12 9cbd ec17 08bd 98a7 06bd
00000140: 5bfb 8fbd 6632 1bbd e4a7 c83d e57d f2bc
00000150: 25fb 49bd 3a10 753d d35a 15bd 1c9d b2bd
00000160: f38e be3d 155a 7abd b1bd bbbd 973a e4bd
00000170: 3962 043d 7bf6 583d 9d53 d9bd 5303 de3c
00000180: 7549 513d 1973 3d3c 3cf6 a1bd 11e3 afbd
00000190: c27f 1b3d f6f2 c4bc 93f6 2d3d a108 22bd
000001a0: 00aa 483d f6fc ccbd 5450 18bd a06b 833d
000001b0: 465c 8d3d 520b aebd fdf8 7ebd 2be0 0b3d
000001c0: 2f5d c73c 286c 123c 308d 5d3d 76b1 9dbd
000001d0: fb81 c43b 8a75 28bd 1ae7 a63c 957d 553d
000001e0: cb38 a93d 8081 b53b 7b6d c7bd 1ad6 f93c
000001f0: 4586 cb3d 030c 663c acad bcbb c940 a7bd
00000200: 91b1 603a ed23 d5bd 286e e83b 4b8a a0bd
00000210: 0098 97bd b5cc fc3c ec85 a23c 3c59 8bbd
00000220: 49f1 ce3d e9d9 7ebd d0a1 003d 76f6 1ebc
00000230: aa12 333b bb78 39bd fd46 2fbc a1ba 463d
00000240: 3dae ff3c b879 383d 01d0 4ebd c732 8ebd
00000250: f070 4fbc cedc 7a3b a2b3 753d 359c 92bd
00000260: eef9 14bd cdab 8b3d 3148 96bd c868 b0bd
00000270: 1efa c93d 5bd0 2ebc fbce 9a3d 15e3 87bd
00000280: 9bb3 1a3c ba58 e53c a689 95bd ddee b13d
00000290: 31f5 a7bd 0971 67bc ff4a f8bc 30c6 73bd
000002a0: 39bd 3f3d 6b59 ca3d 33e5 e3bc b493 ac3d
000002b0: ac4d 453d 99c3 813d 4e6b b63d 70d5 5bbd
000002c0: c23e c13d d58c 6ebd ebb3 893d f166 aa3d
000002d0: b919 83bd 65ba 5e3d 19c3 683d 2ff5 5cba
000002e0: 7355 ac3c 72e8 bdbd 099a cf3c 47dd 723d
000002f0: 61b5 84bc 8c67 78bd 6e8a 51bd 47f3 9ebd
00000300: db35 3fbc 74d0 033d 57ad acbd b0a5 60bb
00000310: 5707 b2bd 9d5c aabc 2960 2d3d 0595 a03d
00000320: a84c d5bd eb24 f2bc 348c 363b 2172 c83c
00000330: 52a8 8a3d 23ed 833d ae03 363c 3eac 77ba
00000340: d98b 6b3b f9a6 2abd 0bef 733d 16e4 d53d
00000350: 972a 52bc 243d 9b3d 6002 373c f7a7 31bd
00000360: 94ed b0bd 0f47 b6bd 61db e2bd 335b d83c
00000370: 30b9 963d 8948 b7bd 9989 8ebc f90e eabd
00000380: 0a28 813d 5ae6 afbd 30b6 a0bc c342 793c
00000390: b62b c6bd 20d7 0a3c e720 aabd c0c7 9a3d
000003a0: 6dca bb3d bebe 2a3d 9a95 7cbd 2562 6cbd
000003b0: 831f 9f3d 2e74 02bd cfbe d5bd 72d8 aabd
000003c0: 69f4 353d cbd9 e7bd 70a4 453c 0b6f a83c
000003d0: 651c 5a3d 871e aa3d 7b58 3cbd 6884 bf3d
000003e0: 426c 893d 6247 b43c 508c 523d 79bf b93d
000003f0: 60aa 5f3d bb7e d33d ed48 953d d1bc 943d

conv_block_2.0.bias f4 [10]
0.09776762 -0.019008366 0.061371733 0.029678494 0.064520545 -0.022678668 -0.013978974 -0.007254936
-0.07220023 0.0006613933
00000000: 643a c83d 6fb7 9bbc ed60 7b3d 5020 f33c
00000010: 5923 843d 9dc8 b9bc 1108 65bc d0ba edbb
00000020: b7dd 93bd 5a61 2d3a

conv_block_2.2.weight f4 [10, 10, 3, 3]
-0.06649846 -0.08279992 -0.03677372 0.091561146 0.08981762 -0.08094952 -0.04599283 0.10222147
-0.016687535 -0.09853754 0.052669086 0.07433682 0.098221816 -0.09543206 0.09464987 -0.021475464
0.05437035 -0.08992043 0.059724562 0.031610854 -0.06107868 -0.037945427 -0.021255739 -0.08135713
-0.068230696 0.048124395 -0.066845156 -0.029919103 -0.0063412637 -0.024022669 0.00022325665 0.011268288
0.07607008 0.04881727 -0.09176804 -0.07598113 0.0113974735 -0.03624118 -0.053429876 -0.038161203
0.06836025 0.08086229 -0.0806892 -0.06202145 0.051650412 -0.09197666 -0.086691774 -0.08864291
0.010979801 0.002051726 -0.07890907 -0.02285035 -0.032981962 -0.08628071 0.024307318 0.010436617
0.062164493 0.035119765 -0.059991527 0.08686813 0.08604086 0.016949542 0.08247202 0.022512771
-0.021168597 -0.10406343 0.036315374 0.023816906 0.047642015 -0.022600919 0.00018706918 0.08290232
-0.06154175 0.09922936 0.0040490627 -0.05853175 -0.0020817816 -0.0081762 -0.061461445 0.08911576
-0.09315393 -0.059727557 -0.09602099 0.033371814 -0.07836272 -0.07068908 0.06581401 -0.011576511
-0.030002266 -0.03746392 0.022214236 0.05806514 0.055947468 -0.10470055 -0.06975832 0.09884304
-0.02061226 0.03169439 0.020659704 0.027545135 0.09629454 -0.079096854 -0.02370778 0.022919701
0.0735616 0.06629433 -0.06806135 -0.036577094 0.031257197 -0.08234904 -0.047167856 0.031241259
-0.035285853 -0.07049353 0.015267182 0.018381676 -0.028041115 0.07480977 0.045776732 -0.012144727
-0.094622806 0.0025708338 0.041435335 -0.10728374 -0.04408677 -0.045593217 -0.05406241 -0.034367353
-0.09863362 -0.006433761 0.10095455 -0.013264108 0.0681665 -0.081494294 -0.02850498 -0.099024564
-0.039667122 -0.037142888 -0.0069325706 -0.087183945 -0.02309551 0.020350719 0.04662792 0.04711485
-0.029215561 -0.026180066 -0.093705885 0.07664449 0.039331995 0.02567359 -0.029259339 -0.07586412
-0.015258767 0.057909105 -0.105756015 -0.09689592 0.07134032 0.011043344 -0.06522188 -0.07930402
0.082573354 0.06543184 0.018346315 -0.022460882 -0.07111084 0.009582406 0.049671274 0.025317067
-0.0045995465 -0.039249636 -0.06657467 -0.036079302 -0.004018272 -0.10621027 0.08787422 -0.10276776
-0.00032271785 0.048478097 0.057038423 -0.015282532 -0.0749009 0.0879566 -0.07471346 0.034299053
-0.036975384 -0.015400775 0.02454584 -0.008154653 0.01819162 0.10474215 -0.0022392794 0.07361402
0.03027334 -0.050531317 -0.0070198774 0.04212267 -0.005678281 0.017461017 -0.013732508 -0.020431124
0.016060568 -0.057684615 -0.047524303 -0.06775716 0.038463898 0.051014774 -0.060535185 0.011375822
0.0006730482 -0.048704065 -0.10378086 0.079208605 0.078404196 0.0775234 0.06626489 -0.094616376
0.020423345 0.06598031 -0.076111645 0.02868589 0.018325932 0.014903687 -0.07719354 0.020364337
-0.070788585 -0.022098415 -0.037557594 -0.06572687 0.0387386 0.095702626 -0.07020123 -0.009973384
-0.032101877 -0.031528555 0.09575195 -0.03557595 0.022078313 0.020662002 0.081018664 -0.014350355
0.052287303 -0.089051664 0.05675251 0.021696143 0.070567094 -0.061351344 -0.05868132 0.016955055
-0.041869394 -0.0035867468 -0.036198296 0.08591842 0.03612628 -0.0030984432 0.104152046 -0.084202684
00000000: 5830 88bd 0193 a9bd 0aa0 16bd 6984 bb3d
00000010: 4df2 b73d ddc8 a5bd fa62 3cbd 7d59 d13d
00000020: 4cb4 88bc 0dce c9bd 8abb 573d e73d 983d
00000030: 8528 c93d e271 c3bd cbd7 c13d 50ed afbc
00000040: 72b3 5e3d 3428 b8bd bea1 743d 627a 013d
00000050: a32d 7abd aa6c 1bbd 8420 aebc 919e a6bd
00000060: 89bc 8bbd 161e 453d 1de6 88bd e818 f5bc
00000070: 60ca cfbb 30cb c4bc 001a 6a39 a09e 383c
00000080: a1ca 9b3d 9ef4 473d e2f0 bbbd ff9b 9bbd
00000090: 78bc 3a3c a271 14bd 49d9 5abd ec4e 1cbd
000000a0: 7500 8c3d 219b a53d 6140 a5bd 340a 7ebd
000000b0: 628f 533d 425e bcbd 758b b1bd 6a8a b5bd
000000c0: a0e4 333c 4076 063b 149b a1bd a830 bbbc
000000d0: 1818 07bd f1b3 b0bd 2420 c73c 58fe 2a3c
000000e0: 32a0 7e3d bed9 0f3d adb9 75bd ebe7 b13d
000000f0: 3136 b03d c4d9 8a3c 17e7 a83d b46c b83c
00000100: c469 adbc 351f d5bd 6ebf 143d ac1b c33c
00000110: 4624 433d 9025 b9bc 0028 4439 b1c8 a93d
00000120: 3413 7cbd c338 cb3d 00ae 843b fdbe 6fbd
00000130: 806e 08bb 78f5 05bc ffbe 7bbd 5382 b63d
00000140: 7dc7 bebd e2a4 74bd a7a6 c4bd e2b0 083d
00000150: a27c a0bd 70c5 90bd 7fc9 863d 68ab 3dbc
00000160: 50c7 f5bc c473 19bd a1fa b53c b6d5 6d3d
00000170: 2c29 653d 3e6d d6bd 73dd 8ebd 386e ca3d
00000180: 0bdb a8bc fad1 013d 8a3e a93c 56a6 e13c
00000190: 1236 c53d 88fd a1bd d136 c2bc 19c2 bb3c
000001a0: 77a7 963d 52c5 873d c063 8bbd ddd1 15bd
000001b0: 8c07 003d 9da6 a8bd 1533 41bd abed ff3c
000001c0: e687 10bd e95e 90bd 3423 7a3c 2b95 963c
000001d0: 7bb6 e5bc dd35 993d 6280 3b3d adfa 46bc
000001e0: 9ac9 c1bd 6f7b 283b 19b8 293d 94b7 dbbd
000001f0: 5494 34bd f4bf 3abd 8c70 5dbd c8c4 0cbd
00000200: 6c00 cabd 4dd2 d2bb 42c1 ce3d b451 59bc
00000210: e19a 8b3d 7be6 a6bd 4783 e9bc 64cd cabd
00000220: fe79 22bd 2423 18bd 9e2a e3bb 7f8d b2bd
00000230: cc32 bdbc 8db6 a63c ebfc 3e3d 80fb 403d
00000240: 7955 efbc 9477 d6bc dfe8 bfbd c9f7 9c3d
00000250: 961a 213d 6c51 d23c 48b1 efbc a65e 9bbd
00000260: e8ff 79bc 1932 6d3d 9c96 d8bd 5e71 c6bd
00000270: e01a 923d 24ef 343c 0d93 85bd 256a a2bd
00000280: 381c a93d 2101 863d 034b 963c e2ff b7bc
00000290: 8fa2 91bd 86ff 1c3c 1b74 4b3d bd65 cf3c
000002a0: cbb7 96bb 3ac4 20bd 4d58 88bd e4c7 13bd
000002b0: b5ab 83bb c584 d9bd 66f7 b33d e777 d2bd
000002c0: 7532 a9b9 f890 463d 1fa1 693d 9663 7abc
000002d0: a565 99bd 9722 b43d 5f03 99bd 2a7d 0c3d
000002e0: 8073 17bd 8853 7cbc 5c14 c93c 189b 05bc
000002f0: 9806 953c 0d83 d63d e0c0 12bb f3c2 963d
00000300: ccff f73c edf9 4ebd 0007 e6bb d288 2c3d
00000310: e010 babb 680a 8f3c 50fe 60bc 2c5f a7bc
00000320: 7491 833c b446 6cbd d8a8 42bd 44c4 8abd
00000330: 528c 1d3d def4 503d bef3 77bd a861 3a3c
00000340: 806f 303a ea7d 47bd 0f8b d4bd 1f38 a23d
00000350: 6192 a03d 97c4 9e3d e3b5 873d 3bc6 c1bd
00000360: dc4e a73c af20 873d 6ce0 9bbd acfe ea3c
00000370: 4420 963c 982e 743c a617 9ebd 1cd3 a63c
00000380: 9bf9 90bd bc07 b5bc fed5 19bd cf9b 86bd
00000390: 5eac 1e3d bdff c33d aac5 8fbd 6867 23bc
000003a0: 427d 03bd 1624 01bd 9919 c43d 16b8 11bd
000003b0: 94dd b43c 5c43 a93c 1ded a53d c01d 6bbc
000003c0: 362b 563d b860 b6bd 5275 683d 1cbc b13c
000003d0: 7b85 903d 8c4b 7bbd d35b 70bd 54e5 8a3c
000003e0: 3e7f 2bbd a00f 6bbb aa44 14bd fff5 af3d
000003f0: 26f9 133d 400f 4bbb ab4d d53d 7572 acbd

conv_block_2.2.bias f4 [10]
-0.04413817 0.048306882 -0.016992137 -0.030771568 -0.023111105 -0.07177764 -0.09815778 -0.00087403366
-0.07825981 -0.011475593
00000000: 3aca 34bd 70dd 453d 1833 8bbc a814 fcbc
00000010: 8053 bdbc 2800 93bd f206 c9bd 681f 65ba
00000020: ae46 a0bd 2004 3cbc

classifier.1.weight f4 [3, 1690]
0.016871901 -0.01983236 0.014259921 -0.010547936 0.017246472 -0.008347202 -0.017235193 -0.010075565
-0.0029311143 -0.012126307 0.012969254 -0.014729609 -0.010835026 0.015566008 0.015030729 0.0048865695
0.0035166815 -0.011003194 0.015687032 -0.0007136911 -0.00619011 -0.0123903155 -0.009400628 0.008443179
-0.016866233 0.0016471017 -0.01848545 -0.009971309 0.014179999 -0.007318871 0.0029339343 0.021824734
-0.024200218 -0.0218072 -0.015278585 0.021420011 -0.014926055 0.010048697 -0.019146472 -0.010444213
-0.013144991 0.000858197 -0.0056579635 -0.010934788 0.017672317 0.023627317 -0.0038856044 -0.004536364
-0.0093120765 -0.02144445 -0.018329203 -0.007588966 -0.013087379 -0.012181884 0.010956334 0.024241323
0.0147082005 0.015147878 0.012674766 0.0033765137 0.018295692 -0.0014630873 0.020912101 0.015576495
-0.021444052 -0.01246754 0.009703731 0.013343656 -0.022876842 0.011236986 -0.009854399 0.0074975733
-0.0017079618 -0.016665967 -0.014062451 -0.008760997 0.0105703715 0.01868433 0.002755165 0.018081328
0.00026503764 0.0038012862 -0.007858954 -0.019175036 -0.009770803 -0.008245397 -0.0097139 -0.015681103
0.018567877 -0.0028055515 0.008246234 0.0036295354 0.018808072 -0.015034139 0.022794815 -0.021214105
-0.01395141 0.023481375 0.0041486714 0.022932922 0.018061781 0.00086051226 -0.01750999 -0.00797081
0.017915266 -0.0041672345 -0.0008692015 -0.018426504 0.016496642 0.016723914 0.010670831 -0.021904174
-0.015913637 0.013489744 0.024266856 -0.021509161 -0.001665419 0.008052761 0.016140876 -0.00894081
0.019845614 -0.020574694 0.008412687 -0.021989416 -0.01078451 -0.009998373 0.0059790425 0.018666225
0.015427055 0.0106692035 -0.00051551685 -0.015926152 0.02217543 0.011670986 -0.0121158585 0.017714577
-0.017472409 -0.0013770554 -0.022712924 -0.010080651 0.023636201 0.012195947 0.0023693535 0.009394394
0.01628284 -0.009827245 0.020643363 0.008625718 -0.0049632546 0.024172435 0.0074206013 0.015638554
-0.008784721 0.010913176 0.000870822 0.0053100865 0.013249969 -0.024064228 -0.0026320182 -0.0042624585
-0.008736973 0.017906183 0.013510769 -0.006213296 -0.021629062 0.0055525806 -0.018462064 0.023177778
0.020296717 -0.016950194 0.01547845 -0.025203802 0.022497758 -0.006951174 -0.0039208275 0.0008396719
-0.016418781 -0.0037629555 -0.006988599 0.004695529 -0.021745607 -0.028258381 0.015454136 0.0013217945
0.017224321 -0.0038996153 0.012307613 0.012717396 -0.0046110256 0.02398509 0.0014786308 0.0072934343
0.02062168 0.01824774 0.009493636 -0.01451952 -0.004039988 0.013853176 0.018470163 0.007193414
0.0011994302 0.011244039 0.023061091 0.005988115 -0.0036252504 0.0032744678 0.0144327 0.012803325
0.0123280035 0.0049903244 0.013747737 -0.01867525 -0.007818479 0.014315108 -0.023403896 -0.017048122
-0.02493702 0.006265736 0.011514121 0.02325706 0.01083728 -0.028341593 -0.016721293 0.015784346
0.009532287 -0.019261912 0.016246406 -0.00026097195 -0.006125333 -0.023177274 0.014601217 -0.021828894
0.0058373455 -0.0062808422 -0.013260383 -0.011085039 0.016585879 -0.024549335 -0.016571153 0.0020058695
0.0015333509 -0.0070798094 -0.027200162 -0.025390714 0.012523502 -0.022319973 -0.011397956 -0.003240373
0.004422882 0.00093293044 0.00471016 0.005479013 -0.009789455 0.016116085 0.0014229065 0.0146045955
00000000: f136 8a3c 7977 a2bc 72a2 693c 40d1 2cbc
00000010: 7948 8d3c b4c2 08bc d230 8dbc fc13 25bc
00000020: f017 40bb 6bad 46bc fe7c 543c 7554 71bc
00000030: 6585 31bc 9208 7f3c 7243 763c 841f a03b
00000040: 2078 663b be46 34bc 1782 803c 0017 3bba
00000050: 68d6 cabb c000 4bbc 1705 1abc 4255 0a3c
00000060: 0e2b 8abc 90e3 d73a cc6e 97bc b45e 23bc
00000070: 3a53 683c 24d3 efbb 4047 403b c9c9 b23c
00000080: 893f c6bc 03a5 b2bc 0853 7abc 0579 af3c
00000090: 6a8c 74bc 4aa3 243c 10d9 9cbc 341e 2bbc
000000a0: 175e 57bc a0f8 603a 7066 b9bb d327 33bc
000000b0: 89c5 903c 138e c13c a0a5 7ebb c8a5 94bb
000000c0: ae91 18bc 45ac afbc 2027 96bc dcac f8bb
000000d0: 726c 56bc 8696 47bc 3282 333c bd95 c63c
000000e0: aafa 703c ce2e 783c d2a9 4f3c 8048 5d3b
000000f0: d9e0 953c 10c5 bfba db4f ab3c 8e34 7f3c
00000100: 70ab afbc a744 4cbc 66fc 1e3c 5a9f 5a3c
00000110: 3768 bbbc 561b 383c 5874 21bc 34ae f53b
00000120: b0dd dfba 1187 88bc 3266 66bc 498a 0fbc
00000130: 5a2f 2d3c e10f 993c 0090 343b 4b1f 943c
00000140: c0f4 8a39 001f 793b d8c2 00bc f714 9dbc
00000150: b815 20bc b417 07bc 0d27 1fbc a875 80bc
00000160: a91b 983c 58dd 37bb 361b 073c 80dd 6d3b
00000170: 6313 9a3c c051 76bc 31bc ba3c 34c9 adbc
00000180: 7494 64bc 035c c03c 94f1 873b d3dd bb3c
00000190: 4df6 933c 0094 613a 1c71 8fbc 0098 02bc
000001a0: 09c3 923c 4c8d 88bb 20db 63ba 2ef3 96bc
000001b0: f723 873c 9700 893c b6d4 2e3c 6270 b3bc
000001c0: 515d 82bc 1604 5d3c 49cb c63c fb33 b0bc
000001d0: 304a daba baef 033c df39 843c 7a7c 12bc
000001e0: 4593 a23c 438c a8bc 5ed5 093c 2623 b4bc
000001f0: 83b1 30bc 37d0 23bc d8eb c33b e9e9 983c
00000200: c2c1 7c3c e2cd 2e3c c023 07ba 9077 82bc
00000210: 3fa9 b53c aa37 3f3c 9881 46bc 291e 913c
00000220: 4c22 8fbc 507e b4ba 7410 babc 5129 25bc
00000230: b5a0 c13c 82d1 473c 2847 1b3b f2ea 193c
00000240: 9763 853c 7402 21bc 451c a93c e252 0d3c
00000250: cca2 a2bb 4505 c63c 8428 f33b 6d1c 803c
00000260: caed 0fbc 2ecd 323c e047 643a 3c00 ae3b
00000270: 6616 593c 5822 c5bc f07d 2cbb 18ac 8bbb
00000280: 8525 0fbc fdaf 923c 465c 5d3c e898 cbbb
00000290: 6e2f b1bc 6cf2 b53b c13d 97bc 53df bd3c
000002a0: 4d45 a63c 22db 8abc 5399 7d3c 3478 cebc
000002b0: 384d b83c acc6 e3bb 497a 80bb 6d1d 5c3a
000002c0: ae80 86bc eb9b 76bb 9e00 e5bb f4dc 993b
000002d0: d823 b2bc 1f7e e7bc 5833 7d3c 1040 ad3a
000002e0: 051a 8d3c b090 7fbb dfa5 493c a05c 503c
000002f0: 1618 97bb 617c c43c 9ece c13a c3fd ee3b
00000300: ccee a83c 497c 953c 328b 1b3c 48e3 6dbc
00000310: e061 84bb 6ef8 623c bd4e 973c bbb6 eb3b
00000320: 3336 9d3a eb38 383c 9dea bc3c f337 c43b
00000330: 9c95 6dbb 7498 563b 2277 6c3c 0ac5 513c
00000340: 65fb 493c e085 a33b 303e 613c d6fc 98bc
00000350: 1419 00bc ea89 6a3c 87b9 bfbc 81a8 8bbc
00000360: b948 ccbc ce50 cd3b b9a5 3c3c 9785 be3c
00000370: d98e 313c a12c e8bc 18fb 88bc 2c4e 813c
00000380: 4f2d 1c3c 28cb 9dbc 2f17 853c 10d3 88b9
00000390: 04b7 c8bb 44de bdbc f139 6f3c 82d2 b2bc
000003a0: 3447 bf3b 86cf cdbb 1442 59bc 069e 35bc
000003b0: 1cdf 873c b01b c9bc 3ac0 87bc e874 033b
000003c0: b8fa c83a bffd e7bb e0d2 debc 3000 d0bc
000003d0: 602f 4d3c 60d8 b6bc 7ebe 3abc 705c 54bb
000003e0: d3ed 903b e78f 743a b057 9a3b 4b89 b33b
000003f0: f363 20bc e105 843c d280 ba3a 1d48 6f3c

classifier.1.bias f4 [3]
-0.018654156 -0.0021832471 0.022162097
00000000: 9ad0 98bc cf14 0fbb 498d b53c
