models/05_pytorch_going_modular_model_test.pth (torch, 36503 bytes, 10 tensors)

conv_block_1.0.weight f4 [10, 3, 3, 3]
0.15901174 0.17163168 -0.032778036 0.18855892 -0.030821884 0.050340615 -0.08157288 0.12426583
0.18076834 -0.13328509 0.17541242 0.044689033 0.1500786 0.033813402 0.100727364 -0.018623477
0.15614216 0.035799447 -0.08337714 0.055900835 -0.08130981 -0.014066112 -0.07144274 0.134403
-0.14267606 -0.08003052 -0.04662447 -0.092895485 0.038987454 -0.17095484 0.19492824 -0.14400306
0.16729209 0.050759315 -0.04443546 0.13697022 0.05087745 0.17456476 0.037002012 -0.043012206
0.068018585 -0.037484072 0.09472279 0.18461756 0.12355795 -0.061915375 0.13109085 0.051045865
0.11612458 -0.100682154 -0.17533824 -0.06099679 -0.13493724 0.17119358 0.044439662 0.06906782
0.050049298 -0.014060762 0.14033088 -0.14718679 0.0012658031 -0.14184417 0.048828095 -0.073396236
0.05207267 -0.04753828 0.15247132 -0.12084619 -0.122050956 -0.121948406 0.16626601 0.05683519
0.18150248 -0.16247031 -0.19530182 -0.15414208 -0.13285945 0.07376555 0.06567186 0.1567531
-0.10351015 -0.12488271 0.10919289 -0.06948714 0.12409791 -0.03788594 0.11826401 -0.14209436
-0.08899624 0.06932618 0.05244606 -0.035945553 0.1303995 0.1431759 -0.12566812 -0.08670944
0.1888696 -0.05085107 -0.0516727 -0.1696919 -0.09053539 0.06762356 -0.008640585 -0.12119545
0.025009999 -0.113920055 -0.14441618 -0.08468856 -0.14617528 -0.10245177 0.20873645 0.056026623
0.07859302 -0.16010575 -0.10512594 -0.04470149 0.05205679 -0.14787309 -0.06264699 -0.098735824
0.019969145 -0.05143347 0.0074127773 -0.110314086 -0.11230091 -0.088353306 -0.044949 -0.13283113
0.17758836 -0.019741904 0.18461618 0.07997995 -0.14324296 0.15356143 -0.028131075 -0.085017204
-0.17140049 -0.20329672 0.043890584 -0.05303598 0.06364732 -0.16964926 0.13122618 -0.15330261
-0.04579199 0.027280122 0.086460136 0.14280726 0.16284011 -0.16513312 0.03502251 -0.09605528
-0.03435544 -0.15704104 0.16201308 -0.15456374 0.08951055 0.054377016 0.04934241 -0.11807064
0.16105655 0.02859606 0.020799976 -0.1730214 0.077552244 -0.035269007 -0.094104216 0.16043815
0.035508506 -0.11346357 -0.105578214 -0.014541541 0.102587566 -0.053364154 -0.11614882 -0.07210853
-0.14905171 0.06138872 0.14215074 -0.18940656 0.038956396 0.09408007 0.029906677 -0.07516465
0.09410416 0.09529558 0.06459358 -0.040768642 -0.05893435 0.034602 -0.020603735 -0.04344635
0.137481 0.178665 -0.00589333 -0.028983302 0.016330555 0.0018872295 0.057353612 0.06476312
-0.16309234 -0.059403755 0.17276385 0.08573667 0.0017446238 -0.10525588 -0.106837176 -0.15971848
-0.04995371 0.078971535 0.13580844 0.10122648 -0.15771921 -0.10288817 -0.01821817 0.1982987
0.03615731 -0.041996356 0.08691051 -0.066004924 -0.11690596 0.14804868 -0.079902306 -0.03096579
-0.18407327 0.13694178 0.15386221 0.07747207 -0.1268528 -0.18176466 -0.14854528 0.15122043
0.100538515 0.16956213 0.110641815 0.058295835 0.0040304456 -0.14114858 -0.15770283 -0.17267308
0.085034266 -0.08664331 -0.031029698 -0.11075604 -0.035068944 -0.13545309 -0.12574992 0.06383778
-0.05719547 0.11880775 -0.061739683 -0.14117508 -0.033955693 -0.09328968 -0.05887848 -0.18321164
00000000: f9d3 223e 37c0 2f3e 4342 06bd 9715 413e
00000010: 2d7e fcbc f631 4e3d af0f a7bd 157f fe3d
00000020: 561b 393e e37b 08be 509f 333e d90b 373d
00000030: 34ae 193e ec7f 0a3d 264a ce3d 4390 98bc
00000040: bbe3 1f3e 71a2 123d a2c1 aabd 46f8 643d
00000050: c285 a6bd 8d75 66bc 9250 92bd f1a0 093e
00000060: ac19 12be 0be7 a3bd 4df9 3ebd fd3f bebd
00000070: 4fb1 1f3d c90e 2fbe 459b 473e 8a75 13be
00000080: 9e4e 2b3e 00e9 4f3d f501 36bd ec41 0c3e
00000090: df64 503d 1bc1 323e 6c8f 173d 912d 30bd
000000a0: 544d 8b3d e688 19bd 06fe c13d 630c 3d3e
000000b0: f30b fd3d fa9a 7dbd ae3c 063e 7815 513d
000000c0: b9d2 ed3d 7232 cebd de8b 33be c5d7 79bd
000000d0: fd2c 0abe 5f4d 2f3e 5d06 363d 6e73 8d3d
000000e0: 7e00 4d3d 1c5f 66bc e6b2 0f3e 22b8 16be
000000f0: 4ee9 a53a 993f 11be f8ff 473d c450 96bd
00000100: 274a 553d 80b7 42bd 7121 1c3e 357e f7bd
00000110: daf5 f9bd 16c0 f9bd a341 2a3e 04cc 683d
00000120: c9db 393e 9e5e 26be 33fd 47be 6cd7 1dbe
00000130: 4f0c 08be 6512 973d f87e 863d e283 203e
00000140: 21fd d3bd 82c2 ffbd 86a0 df3d 464f 8ebd
00000150: 0c27 fe3d 4a2e 1bbd 6734 f23d 2f81 11be
00000160: a943 b6bd e2fa 8d3d aed1 563d a53b 13bd
00000170: 7287 053e b49c 123e 25af 00be b894 b1bd
00000180: 0867 413e 3649 50bd c1a6 53bd b7c3 2dbe
00000190: 9e6a b9bd 397e 8a3d 3d91 0dbc 5235 f8bd
000001a0: c5e1 cc3c eb4e e9bd d6e1 13be 3271 adbd
000001b0: f9ae 15be 3cd2 d1bd 02bf 553e 2c7c 653d
000001c0: 61f5 a03d c3f2 23be 454c d7bd e918 37bd
000001d0: 8039 553d 0b6c 17be 114d 80bd 0236 cabd
000001e0: 5596 a33c e7ab 52bd e2e6 f23b 5aec e1bd
000001f0: 05fe e5bd 94f2 b4bd 711c 38bd e204 08be
00000200: b9d9 353e c6b9 a1bc 060c 3d3e 87cc a33d
00000210: 48ae 12be 353f 1d3e 2473 e6bc 801d aebd
00000220: 9c83 2fbe 042d 50be 9dc6 333d 413c 59bd
00000230: 8759 823d 89b8 2dbe 2860 063e 5cfb 1cbe
00000240: 6290 3bbd 907a df3c 0312 b13d 113c 123e
00000250: 8fbf 263e a818 29be c373 0f3d a1b8 c4bd
00000260: 4ab8 0cbd 5ecf 20be c2e6 253e f545 1ebe
00000270: 4f51 b73d 6fba 5e3d 441b 4a3d 05cf f1bd
00000280: 02ec 243e 4942 ea3c b664 aa3c 862c 31be
00000290: b6d3 9e3d 3c76 10bd b6b9 c0bd e649 243e
000002a0: 5e71 113d 975f e8bd 6439 d8bd a53f 6ebc
000002b0: 6e19 d23d 5f94 5abd 6fdf edbd a3ad 93bd
000002c0: 03a1 18be bd72 7b3d f78f 113e cbf3 41be
000002d0: be90 1f3d 0dad c03d d9fe f43c edef 99bd
000002e0: afb9 c03d 542a c33d a449 843d 05fd 26bd
000002f0: 2565 71bd d4ba 0d3d 2ac9 a8bc cdf4 31bd
00000300: d2c7 0c3e f5f3 363e d61c c1bb 646e edbc
00000310: a8c7 853c ea5c f73a 9feb 6a3d 87a2 843d
00000320: ae01 27be 5a51 73bd 02e9 303e b596 af3d
00000330: dcab e43a 6590 d7bd 73cd dabd 3e8d 23be
00000340: 439c 4cbd d4bb a13d 5e11 0b3e d44f cf3d
00000350: 2581 21be 08b7 d2bd 463e 95bc d00e 4b3e
00000360: b019 143d 5f04 2cbd 23fe b13d 972d 87bd
00000370: 646c efbd 139a 173e d2a3 a3bd f8ab fdbc
00000380: b47d 3cbe 773a 0c3e 0e8e 1d3e ada9 9e3d
00000390: b3e5 01be 8420 3abe 411c 18be 87d9 1a3e
000003a0: 23e7 cd3d b2a1 2d3e 2d98 e23d 9dc7 6e3d
000003b0: d411 843b 4189 10be da7c 21be 36d1 30be
000003c0: 7226 ae3d 0c72 b1bd fe31 febc 10d4 e2bd
000003d0: 74a4 0fbd 37b4 0abe 96c4 00be 62bd 823d
000003e0: cc45 6abd 7a51 f33d c0e2 7cbd 3390 10be
000003f0: 2015 0bbd a90e bfbd 902a 71bd d59b 3bbe

conv_block_1.0.bias f4 [10]
0.08833156 -0.1700178 0.11341135 0.16714954 0.20928352 -0.05872868 -0.1634118 0.045402884
0.12394837 -0.19154726
00000000: 2de7 b43d 2519 2ebe 3644 e83d 4029 2b3e
00000010: 6b4e 563e 7c8d 70bd 6c55 27be 60f8 393d
00000020: a5d8 fd3d f724 44be

conv_block_1.2.weight f4 [10, 10, 3, 3]
-0.012777053 -0.052739363 -0.00032624754 -0.03933229 -0.031040562 -0.021562248 -0.087534875 0.09896845
0.10067465 -0.026183745 -0.021022728 -0.045647684 -0.100596726 -0.110780165 0.037973665 -0.060630623
-0.07518073 -0.018339816 -0.016007802 -0.014751265 0.022392256 -0.0042056004 -0.017261783 -0.03140206
-0.06863624 0.10607393 -0.024929078 0.048650093 -0.014804253 0.029838813 0.1175782 0.067675345
-0.07435356 0.060984857 0.11811772 0.044993754 0.1017754 0.13523026 0.013604554 0.049712006
-0.04493181 0.0013884946 0.10398212 0.08000286 -0.043232802 -0.09261896 -0.0740122 -0.11529188
-0.1017966 -0.029497294 0.057370607 0.01566024 -0.083117045 -0.08592445 0.055728443 -0.08166629
-0.009849318 0.05056546 -0.04603758 -0.013596143 -0.009175293 -0.024938077 -0.053445883 -0.07807596
-0.07039079 -0.04083469 0.11673154 -0.038964733 -0.058967516 0.03903522 0.040689003 0.07233134
0.09559594 0.075208746 -0.08851211 0.026193963 0.07947006 0.0053426577 -0.045483842 0.11652167
-0.023650773 -0.060014185 -0.09503225 0.004708454 0.046710335 0.023333691 0.020844646 -0.07994106
-0.098440364 0.001856193 0.098137945 0.062429026 -0.059687488 -0.011882706 -0.07627884 -0.049145516
0.020780237 0.05878663 0.089061774 -0.09419729 0.07202469 -0.07827633 0.041697487 0.08803146
-0.002326852 0.09802761 -0.091032855 -0.04261887 0.07182632 -0.012058446 -0.014029317 -0.034019988
0.081850536 0.059042417 0.043854337 -0.049654055 -0.07562275 0.025322162 0.045822613 -0.03244092
-0.013029283 0.08811053 0.027343875 0.021765843 -0.010243048 -0.07808117 -0.090988286 -0.04350033
-0.04370051 0.048426606 -0.013317073 -0.023774717 0.12211074 0.056497466 0.097564414 -0.053172737
-0.04466575 0.03912676 -0.06434103 -0.07822485 -0.005851685 -0.04416571 -0.08395638 0.063390024
0.08034975 0.013281916 -0.021916134 -0.10522434 -0.03839414 0.03133026 0.05096662 -0.018569162
-0.041393973 0.06207298 -0.08455305 0.06705527 -0.034082327 0.00842055 -0.015517728 0.014836626
-0.029719299 0.08065077 0.0149759995 0.103223644 0.11928331 -0.03821598 -0.065103516 0.094929166
0.099799775 -0.05978839 0.013943717 -0.10394684 -0.08628792 0.020359017 0.028042503 0.02234476
-0.028688677 0.097248234 0.015071198 -0.0622004 -0.012239997 0.018745836 0.029995104 -0.0811775
0.033202644 -0.060163684 -0.0945107 -0.06427491 0.09509409 0.0853257 0.089607835 0.0571074
0.07963138 -0.014109001 -0.05799911 0.05266843 -0.05462126 -0.07113711 -0.039998632 0.017269116
0.049507216 -0.045691557 -0.06678681 0.009527228 -0.06687987 -0.07337699 0.0484508 -0.022467215
0.09155742 0.097780146 0.02556627 0.03151963 0.018703615 -0.0052552163 -0.014094807 -0.003748767
0.034599118 0.09324196 -0.032041315 -0.04931501 -0.030287435 -0.05569095 0.011642679 0.07392537
0.077667944 0.048396073 -0.07757399 -0.05657365 -0.023159616 -0.019429468 0.0040524686 -0.096762694
0.032808073 -0.08041378 -0.06669715 -0.08763541 0.09184516 -0.099816225 0.07951724 -0.0035435334
-0.012258969 0.06593122 -0.009742729 0.059296537 0.07621247 -0.09151738 0.03369427 0.013925572
0.017828489 0.010662421 0.024119856 -0.057225876 -0.020316418 0.09347211 0.06440283 -0.0093636
00000000: d856 51bc 3b05 58bd 340c abb9 e51a 21bd
00000010: c748 febc 50a3 b0bc 7c45 b3bd f9af ca3d
00000020: 832e ce3d 4b7f d6bc db37 acbc 11f9 3abd
00000030: a805 cebd b6e0 e2bd 468a 1b3d d157 78bd
00000040: 5bf8 99bd 623d 96bc cb22 83bc 4aaf 71bc
00000050: f76f b73c 22cf 89bb 9568 8dbc 729f 00bd
00000060: 2891 8cbd 4a3d d93d 1138 ccbc 5245 473d
00000070: 8a8d 72bc 8770 f43c d7cc f03d 5f99 8a3d
00000080: ae46 98bd 42cb 793d b4e7 f13d 5f4b 383d
00000090: 9f6f d03d cd79 0a3e a3e5 5e3c d19e 4b3d
000000a0: 6b0a 38bd 26fe b53a 94f4 d43d 8ad8 a33d
000000b0: e114 31bd 02af bdbd b593 97bd 261e ecbd
000000c0: bc7a d0bd 4fa4 f1bc 71fd 6a3d e749 803c
000000d0: 4539 aabd 28f9 afbd 8243 643d a840 a7bd
000000e0: 095f 21bc ba1d 4f3d e791 3cbd 5bc2 5ebc
000000f0: f853 16bc f04a ccbc 12ea 5abd 4ae6 9fbd
00000100: 0c29 90bd 4742 27bd f210 ef3d 7c99 1fbd
00000110: ec87 71bd 65e3 1f3d 83a9 263d 7422 943d
00000120: cec7 c33d 0b07 9a3d d645 b5bd b994 d63c
00000130: 33c1 a23d 7611 af3b 444d 3abd eaa2 ee3d
00000140: 44bf c1bc 6fd1 75bd 45a0 c2bd 6049 9a3b
00000150: 5653 3f3d 4c26 bf3c 64c2 aa3c 23b8 a3bd
00000160: 1a9b c9bd 804b f33a 8cfc c83d 94b5 7f3d
00000170: de7a 74bd aeaf 42bc 1538 9cbd cf4c 49bd
00000180: 513b aa3c 40ca 703d 0566 b63d 82ea c0bd
00000190: ae81 933d 574f a0bd fcca 2a3d d749 b43d
000001a0: 197e 18bb b3c2 c83d 6f6f babd 2091 2ebd
000001b0: ad19 933d ca90 45bc 38db 65bc 8b58 0bbd
000001c0: 41a1 a73d 76d6 713d 9ba0 333d 0d62 4bbd
000001d0: 1ae0 9abd 6c70 cf3c 7eb0 3b3d c5e0 04bd
000001e0: c678 55bc 4b73 b43d 4300 e03c 484e b23c
000001f0: 75d2 27bc 05e9 9fbd 1158 babd 672d 32bd
00000200: 4eff 32bd fa5a 463d da2f 5abc 32c3 c2bc
00000210: 3215 fa3d e369 673d dacf c73d a8cb 59bd
00000220: 6ff3 36bd 6243 203d 3bc5 83bd 5a34 a0bd
00000230: 7ebf bfbb 1be7 34bd 53f1 abbd a1d2 813d
00000240: 698e a43d 659c 593c 7789 b3bc dc7f d7bd
00000250: 2c43 1dbd 2954 003d 60c2 503d 5b1e 98bc
00000260: ba8c 29bd 3d40 7e3d 262a adbd 4654 893d
00000270: e999 0bbd 59f6 093c 123e 7ebc 5215 733c
00000280: e375 f3bc 3b2c a53d e55d 753c eb66 d33d
00000290: cf4a f43d 5c88 1cbd fe54 85bd 396a c23d
000002a0: d363 cc3d ace4 74bd 3074 643c 15e2 d4bd
000002b0: b9b7 b0bd f4c7 a63c 64b9 e53c 5c0c b73c
000002c0: 8404 ebbc 152a c73d 30ed 763c d9c5 7ebd
000002d0: 458a 48bc de90 993c 4bb8 f53c 6440 a6bd
000002e0: 7fff 073d 326e 76bd d38e c1bd 90a2 83bd
000002f0: b1c0 c23d 3ebf ae3d 5084 b73d 73e9 693d
00000300: c715 a33d 7029 67bc 7a90 6dbd daba 573d
00000310: 8bba 5fbd 55b0 91bd 9bd5 23bd f677 8d3c
00000320: 14c8 4a3d 1227 3bbd 86c7 88bd 1718 1c3c
00000330: 50f8 88bd ad46 96bd 5974 463d 2a0d b8bc
00000340: 7582 bb3d f540 c83d 5b70 d13c ba1a 013d
00000350: 5338 993c f333 acbb e8ed 66bc e0ad 75bb
00000360: ceb7 0d3d a4f5 be3d c13d 03bd 89fe 49bd
00000370: 5b1d f8bc 321c 64bd efc0 3e3c 2f66 973d
00000380: 5f10 9f3d f63a 463d 1ddf 9ebd c6b9 67bd
00000390: 3cb9 bdbc 8c2a 9fbc 92ca 843b 852b c6bd
000003a0: c261 063d fbaf a4bd 8498 88bd 327a b3bd
000003b0: 5119 bc3d 736c ccbd efd9 a23d a03a 68bb
000003c0: d8d9 48bc f306 873d f89f 1fbc ede0 723d
000003d0: 4915 9c3d 776d bbbd 0103 0a3d 1528 643c
000003e0: 0d0d 923c 6fb1 2e3c 0197 c53c ae65 6abd
000003f0: 9e6e a6bc 4e6e bf3d a2e5 833d c969 19bc

conv_block_1.2.bias f4 [10]
0.026820676 0.030934151 -0.098614 -0.091364086 0.019120041 -0.044434514 0.0046607056 -0.020784894
0.009122526 0.05636564
00000000: 09b7 db3c 9e69 fd3c 23f6 c9bd 181d bbbd
00000010: a2a1 9c3c f700 36bd d5b8 983b 1545 aabc
00000020: a676 153c a8df 663d

conv_block_2.0.weight f4 [10, 10, 3, 3]
-0.0638684 0.055092655 0.053947814 -0.10966939 -0.10985623 -0.11284942 -0.08492343 -0.06822004
-0.03426434 -0.021213284 -0.048512585 -0.029277766 -0.033743557 0.1075485 -0.03511232 -0.07113821
0.048027758 -0.0020582308 0.07992628 0.06586314 0.09684252 -0.07780609 0.06648553 0.08846354
-0.04843658 0.093400516 0.07794544 0.0047783568 0.055872563 -0.031996746 -0.08677575 0.031596284
0.03615455 -0.064040735 0.05592681 -0.0851342 0.074867085 0.08619665 0.015563523 -0.08303173
0.035260905 0.0029133465 0.013394806 0.018649157 0.062610544 -0.049269922 -0.023702059 0.021104544
0.003405739 0.08882197 -0.06790376 -0.014774617 0.020873304 -0.027676752 0.052276682 -0.008316134
-0.1175685 -0.031724337 -0.06388515 -0.006348448 -0.026023071 -0.11957028 -0.036107797 0.010829812
-0.011386602 0.11401952 -0.002770416 0.08713602 0.045440707 -0.06878601 0.04425362 0.10707515
-0.05938087 -0.06288119 0.104493916 0.09549944 -0.05151513 0.06355928 0.0044502816 -0.0925343
0.017254887 0.03956225 -0.025802193 0.04162049 -0.08470784 0.077615485 0.094367415 0.06334851
0.022447225 0.038896445 -0.047605313 0.0039703296 0.01897062 -0.02633849 -0.046608943 0.09868715
0.099208 -0.0665795 0.062228426 0.051707625 0.110544056 0.070788234 0.10577453 -0.025290707
0.084180355 0.095418036 -0.09004303 -0.07440063 0.02526074 0.0616843 -0.04826478 0.012829905
-0.0018541936 0.030945523 -0.05226117 0.060232628 0.07248307 -0.07313909 0.0010211468 0.0002924651
0.033848576 0.09819763 0.030912675 -0.0239513 0.094671525 -0.040111683 -0.008219719 0.02093482
-0.06615837 0.03507418 -0.05405437 0.027308535 0.02619554 0.025471386 -0.07494079 -0.09551579
0.04661941 0.10211481 -0.1008855 0.038131885 -0.079029605 -0.0008221102 0.11106409 0.07257299
-0.056074485 0.08868607 0.081792295 0.021985939 0.13086833 -0.010475059 -0.0027656795 -0.028647084
0.04235705 0.015480034 -0.0032810667 -0.0700315 -0.0631657 0.023426307 -0.104550645 -0.02836169
-0.01156919 -0.05367291 0.031224286 -0.0014597531 0.053260252 -0.013933 -0.07615255 0.07429578
0.013795973 -0.02763193 -0.078121156 0.024966892 -0.09860915 0.029749034 0.054472867 -0.09004055
-0.06740789 -0.07194649 0.09206904 0.09417192 -0.025890034 0.0666331 -0.067648485 -0.13441607
0.00513378 0.00566777 0.07142991 -0.031482782 0.04967614 0.061641395 0.073439844 -0.10771994
0.083520934 -0.093187295 0.09068017 -0.008747407 -0.09739839 0.025208015 -0.017478362 -0.09778796
-0.041751 0.014338666 0.079208985 -0.02897303 0.05857672 0.0161001 0.00044098962 0.01632149
-0.06427009 -0.082650706 -0.028125225 -0.09355368 -0.044339787 0.009632726 -0.06448374 -0.038788803
-0.04236616 -0.034130562 -0.081352085 -0.017220125 -0.037689775 0.008201417 -0.013216435 -0.07321056
-0.05571968 0.003779464 -0.0832749 0.016947495 -0.0067535364 0.03960763 0.018728621 0.07794686
0.00029194122 -0.07644914 0.0229506 -0.09546092 -0.0396957 -0.057418253 -0.06560533 -0.063454986
0.07463661 0.038798112 0.008712713 0.115946315 -0.078124955 0.034580525 0.08367443 0.086631425
-0.06667387 0.05155333 -0.045406796 0.01062108 -0.024824487 -0.08888826 -0.09253064 -0.07257484
00000000: 70cd 82bd d6a8 613d 62f8 5c3d 589a e0bd
00000010: 4efc e0bd 991d e7bd 56ec adbd f3b6 8bbd
00000020: c458 0cbd 7bc7 adbc 22b5 46bd edd7 efbc
00000030: af36 0abd 6342 dc3d f0d1 0fbd e9b0 91bd
00000040: c1b8 443d 62e3 06bb 64b0 a33d 41e3 863d
00000050: 5f55 c63d cd58 9fbd 9129 883d 5f2c b53d
00000060: 6f65 46bd c548 bf3d dca1 9f3d c393 9c3b
00000070: a1da 643d 050f 03bd 7cb7 b1bd 1b6b 013d
00000080: cb16 143d ca27 83bd 8313 653d d75a aebd
00000090: ea53 993d df87 b03d 26fe 7e3c 8a0c aabd
000000a0: bd6d 103d d8ed 3e3b e375 5b3c 1ec6 983c
000000b0: f539 803d 42cf 49bd d22a c2bc 70e3 ac3c
000000c0: d232 5f3b 4be8 b53d 2011 8bbd 3c11 72bc
000000d0: 7efe aa3c 5bba e2bc 1320 563d 6540 08bc
000000e0: c1c7 f0bd 61f1 01bd 38d6 82bd a406 d0bb
000000f0: 562e d5bc 43e1 f4bd c5e5 13bd 866f 313c
00000100: df8e 3abc 1183 e93d de8f 35bb 5f74 b23d
00000110: 0920 3a3d aedf 8cbd 4943 353d 374a db3d
00000120: 5b39 73bd dac7 80bd e800 d63d 3695 c33d
00000130: 8701 53bd 5e2b 823d abd3 913b a082 bdbd
00000140: 1f5a 8d3c 070c 223d 1f5f d3bc 3f7a 2a3d
00000150: 4e7b adbd def4 9e3d b443 c13d ddbc 813d
00000160: 3ee3 b73c e151 1f3d cafd 42bd 8a19 823b
00000170: 4668 9b3c d1c3 d7bc 05e9 3ebd 7d1c ca3d
00000180: 902d cb3d d55a 88bd 3ce3 7e3d 60cb 533d
00000190: ec64 e23d 6cf9 903d 51a0 d83d 752e cfbc
000001a0: c066 ac3d 886a c33d 7b68 b8bd 5c5f 98bd
000001b0: 9def ce3c ada8 7c3d 4ab1 45bd 8634 523c
000001c0: 6a08 f3ba 7781 fd3c cf0f 56bd 7db6 763d
000001d0: 0172 943d f2c9 95bd 00d8 853a 0056 9939
000001e0: cea4 0a3d d71b c93d 943c fd3c 8435 c4bc
000001f0: 25e3 c13d 264c 24bd 00ac 06bc 807f ab3c
00000200: 0a7e 87bd f2a9 0f3d 1d68 5dbd 26b6 df3c
00000210: 0798 d63c 5ea9 d03c 8f7a 99bd c89d c3bd
00000220: fff3 3e3d 9221 d13d 0f9d cebd 2e30 1c3d
00000230: 46da a1bd e282 57ba 9275 e33d 26a1 943d
00000240: 5cae 65bd 0ba1 b53d b882 a73d db1b b43c
00000250: 5902 063e 959f 2bbc 6740 35bb 4aad eabc
00000260: 967e 2d3d f89f 7d3c 2a07 57bb ad6c 8fbd
00000270: 055d 81bd 87e8 bf3c a61e d6bd c656 e8bc
00000280: b38c 3dbc 20d8 5bbd 13ca ff3c 3055 bfba
00000290: 6c27 5a3d 3d47 64bc def5 9bbd 6328 983d
000002a0: 8108 623c 5b5c e2bc fcfd 9fbd 5e87 cc3c
000002b0: 98f3 c9bd 3fb4 f33c f11e 5f3d 2e67 b8bd
000002c0: 260d 8abd ae58 93bd b18e bc3d 35dd c03d
000002d0: 5617 d4bc ef76 883d 4a8b 8abd 5ea4 09be
000002e0: 4539 a83b b3b8 b93b d849 923d 17f4 00bd
000002f0: 3579 4b3d b07b 7c3d a167 963d 469c dcbd
00000300: 060d ab3d fbd8 bebd 86b6 b93d 4951 0fbc
00000310: cf78 c7bd 0a81 ce3c c82e 8fbc 0e45 c8bd
00000320: 1903 2bbd b9ec 6a3c 5238 a23d d958 edbc
00000330: 25ee 6f3d 5be4 833c a034 e739 a5b4 853c
00000340: 09a0 83bd c644 a9bd df66 e6bc 1299 bfbd
00000350: a39d 35bd 95d2 1d3c 0d10 84bd 02e1 1ebd
00000360: 2388 2dbd 7dcc 0bbd ec9b a6bd 3811 8dbc
00000370: 9860 1abd 3c5f 063c bf89 58bc 6bef 95bd
00000380: 523a 64bd e2b0 773b 088c aabd 79d5 8a3c
00000390: c54c ddbb 9c3b 223d c46c 993c 9aa2 9f3d
000003a0: b00f 9939 5e91 9cbd e602 bc3c 0481 c3bd
000003b0: f597 22bd 672f 6bbd 165c 86bd b0f4 81bd
000003c0: 14db 983d c5ea 1e3d c4bf 0e3c 4375 ed3d
000003d0: faff 9fbd 4fa4 0d3d 805d ab3d d16b b13d
000003e0: 4f8c 88bd 9629 533d 7afc 39bd 0a04 2e3c
000003f0: b95c cbbc 0c0b b6bd b480 bdbd 1ea2 94bd

conv_block_2.0.bias f4 [10]
0.028168967 0.0011014608 0.013899662 0.06578955 -0.051520146 -0.053281747 0.05580082 0.0067160646
-0.01160115 -0.09259024
00000000: 9bc2 e63c e45e 903a 68bb 633c acbc 863d
00000010: ca06 53bd f63d 5abd 678f 643d 6f12 dc3b
00000020: c012 3ebc f49f bdbd

conv_block_2.2.weight f4 [10, 10, 3, 3]
0.085643135 -0.0066750837 -0.021714777 -0.046865746 -0.02350191 0.049263675 -0.0060024895 0.086898826
-0.008729168 -0.034642287 0.03519974 -0.02288253 -0.04285272 0.01808345 0.060466237 0.010867217
0.06017511 0.051959086 0.025136195 0.030811882 0.027947165 0.005610113 0.08452117 0.091729686
0.032845855 -0.010282148 0.089642376 -0.08890176 0.07081975 0.04920433 0.06058089 -0.015059806
-0.08519016 0.06843158 -0.05296707 0.02088614 0.059179995 -0.09396356 0.008121627 -0.039287295
0.07275406 -0.07121843 0.06460975 0.06839007 0.059883643 0.10003689 0.015084505 -0.09146913
0.07366586 0.011852358 0.0020918474 -0.10534161 -0.025159465 -0.048428506 0.0940017 0.065932326
0.06933019 0.0627083 -0.074472435 -0.05416993 -0.05086994 -0.051638838 0.072705016 0.033218823
0.08250187 -0.0064515807 -0.094142534 -0.030444447 0.07623919 0.064184204 0.03398795 -0.029260589
-0.09838595 -0.05663921 0.05495832 -0.04251764 0.05042132 0.028781064 -0.040486358 0.064202495
-0.033871427 -0.003501974 -0.04015176 -0.09998822 0.016995996 0.030460037 -0.0530716 0.06466297
-0.094557956 -0.10161206 -0.08092536 -0.050380323 -0.025612414 -0.03541392 0.034894146 -0.10490607
0.0042293603 -0.00827786 0.017826883 0.12929277 0.08038849 -0.039815016 -0.06752334 -0.003654297
-0.034023043 0.059973333 0.025764043 0.10299025 0.035444107 -0.025676575 -0.00019344335 0.019270284
-0.018549483 0.07979774 -0.08881349 0.046126418 -0.07074136 -0.09359391 -0.02263322 0.05078706
0.07312762 0.02558435 -0.009402588 -0.006855445 -0.043240253 -0.009592854 -0.0033663095 0.08974476
0.0681133 -0.082299635 0.0011307981 -0.05906673 -0.009677248 -0.07715418 0.030779803 -0.076008305
0.10288675 0.08075561 -0.0725594 -0.099239014 0.004112825 -0.029425174 0.030944653 -0.07020849
0.04915045 -0.084884055 -0.049836446 -0.048821907 0.05713052 0.0036005315 -0.09475805 -0.053335354
-0.042647425 -0.11846371 -0.0044883657 0.017929537 -0.041922152 -0.061208636 -0.019366877 -0.10020411
-0.07918564 -0.016331144 0.093643196 -0.032414228 0.0522471 -0.041483857 -0.028059714 -0.10034376
0.08732999 0.102639906 -0.00221394 0.06697386 0.08621862 0.052358635 0.0542878 -0.10034862
-0.099049985 -0.080905855 0.032970496 -0.09117655 -0.09141104 -0.062083017 -0.10774215 -0.009044973
0.0061434405 -0.07069683 0.06317992 -0.046158813 -0.035545006 0.1076169 0.11690823 0.01574168
-0.052685075 -0.02824564 0.037069365 0.08400387 0.07183075 -0.027324 -0.094843715 -0.08840081
-0.029253129 0.005387898 -0.04337959 -0.079591565 0.016188197 -0.07916417 -0.07671574 -0.07845282
-0.021673651 0.09975748 0.048689425 -0.0052484893 0.028663993 0.04977959 0.008209279 -0.077521965
-0.061883934 -0.06473441 0.0014850006 -0.09034136 -0.012885688 -0.03134295 0.11174275 0.0938691
0.070562415 0.0059115887 -0.033835698 0.028011518 -0.07283038 -0.04495747 -0.021175183 -0.0247664
-0.099854425 0.04304179 0.099272914 -0.045557573 0.040886503 0.0007145463 0.008979809 0.018864408
0.10422009 0.027024895 -0.05372103 -0.056240115 0.033041842 0.014693182 -0.015724685 -0.03390662
-0.05895155 -0.052076165 -0.073214516 0.0016626229 0.029603355 0.08071662 -0.023813367 0.0075461194
00000000: ab65 af3d a9ba dabb 30e3 b1bc 4cf6 3fbd
00000010: 1487 c0bc b5c8 493d 88b0 c4bb 03f8 b13d
00000020: c904 0fbc 12e5 0dbd 9a2d 103d 2574 bbbc
00000030: 5586 2fbd be23 943c 72ab 773d 690c 323c
00000040: 2d7a 763d 0dd3 543d 6cea cd3c 3369 fc3c
00000050: 74f1 e43c 0ad5 b73b 6f19 ad3d c6dc bb3d
00000060: 6089 063d 7476 28bc 6c96 b73d 2012 b6bd
00000070: f209 913d 7b8a 493d ab23 783d 68bd 76bc
00000080: 2e78 aebd db25 8c3d 00f4 58bd 6919 ab3c
00000090: b966 723d f86f c0bd 9310 053c b7eb 20bd
000000a0: 1500 953d f8da 91bd 1e52 843d 1810 8c3d
000000b0: 8d48 753d 24e0 cc3d 0025 773c 2b54 bbbd
000000c0: 20de 963d 6430 423c 6017 093b 58bd d7bd
000000d0: 391b cebc f85c 46bd f783 c03d 8707 873d
000000e0: fdfc 8d3d 366d 803d 0185 98bd 4ae1 5dbd
000000f0: 005d 50bd 3f83 53bd 5ee6 943d 7610 083d
00000100: bef6 a83d c867 d3bb cdcd c0bd a266 f9bc
00000110: 4b23 9c3d 0273 833d f336 0b3d e7b3 efbc
00000120: 937e c9bd 84fe 67bd fa1b 613d fa26 2ebd
00000130: 9686 4e3d 44c6 eb3c 06d5 25bd 997c 833d
00000140: c4bc 0abd 6081 65bb 2c76 24bd a0c6 ccbd
00000150: 303b 8b3c 5487 f93c 9b61 59bd 056e 843d
00000160: 9aa7 c1bd fc19 d0bd 32bc a5bd 995b 4ebd
00000170: 20d1 d1bc 300e 11bd 2aed 0e3d fed8 d6bd
00000180: 7296 8a3b dc9f 07bc af09 923c 5365 043e
00000190: b8a2 a43d 1215 23bd ad49 8abd ee7c 6fbb
000001a0: bf5b 0bbd 99a6 753d 1d0f d33c 8dec d23d
000001b0: d72d 113d ae57 d2bc 0ed7 4ab9 b7dc 9d3c
000001c0: 16f5 97bc ff6c a33d d9e3 b5bd 0eef 3c3d
000001d0: d9e0 90bd 2aae bfbd 4d69 b9bc 1806 503d
000001e0: efc3 953d 4596 d13c 500d 1abc a4a3 e0bb
000001f0: b11c 31bd 592b 1dbc 4d9d 5cbb 1acc b73d
00000200: fc7e 8b3d b68c a8bd 4a37 943a f5ef 71bd
00000210: 528d 1ebc 0303 9ebd ed25 fc3c 3eaa 9bbd
00000220: 4ab6 d23d 3263 a53d 069a 94bd d33d cbbd
00000230: e0c4 863b 100d f1bc a47f fd3c 78c9 8fbd
00000240: fb51 493d b1d7 adbd 4d21 4cbd 7bf9 47bd
00000250: b101 6a3d e5f6 6b3b 8210 c2bd 2c76 5abd
00000260: 11af 2ebd 1a9d f2bd 2413 93bb f7e0 923c
00000270: 90b6 2bbd e8b5 7abd 49a7 9ebc d037 cdbd
00000280: 152c a2bd e4c8 85bc 01c8 bf3d c8c4 04bd
00000290: 0e01 563d faea 29bd 7cdd e5bc 0781 cdbd
000002a0: 11da b23d df34 d23d c017 11bb 9729 893d
000002b0: 6393 b03d 0276 563d e25c 5e3d 9483 cdbd
000002c0: b8da cabd f8b1 a5bd 120c 073d c5ba babd
000002d0: b635 bbbd c34a 7ebd eba7 dcbd 5e31 14bc
000002e0: ea4e c93b 80c9 90bd 7964 813d 0611 3dbd
000002f0: a497 11bd 4066 dc3d 956d ef3d b2f4 803c
00000300: 4ecc 57bd 6763 e7bc 0cd6 173d 390a ac3d
00000310: 001c 933d 95d6 dfbc 6c3d c2bd 7c0b b5bd
00000320: 42a4 efbc f78c b03b ccae 31bd e700 a3bd
00000330: 1c9d 843c d320 a2bd 241d 9dbd dfab a0bd
00000340: f18c b1bc a64d cc3d 906e 473d 85fb abbb
00000350: c0d0 ea3c afe5 4b3d 3680 063c d6c3 9ebd
00000360: 027a 7dbd 7993 84bd 5aa4 c23a e404 b9bd
00000370: 7e1e 53bc 7761 00bd 62d9 e43d 713e c03d
00000380: 0783 903d 00b6 c13b 4d97 0abd 6978 e53c
00000390: 1828 95bd 5325 38bd 9477 adbc e8e2 cabc
000003a0: 7a80 ccbd 974c 303d 994f cb3d 949a 3abd
000003b0: 9b78 273d 6450 3b3a 0c20 133c 8889 9a3c
000003c0: 5871 d53d 5063 dd3c 950a 5cbd 095c 66bd
000003d0: e256 073d acbb 703c 0ed1 80bc abe1 0abd
000003e0: 2e77 71bd d14d 55bd 7ef1 95bd 5eec d93a
000003f0: bc82 f23c c14e a53d 4014 c3bc 7045 f73b

conv_block_2.2.bias f4 [10]
0.07097252 0.08644697 0.050903097 -0.09601737 0.0063537615 -0.04115569 -0.029631563 0.0675289
-0.040087026 -0.07549103
00000000: 0a5a 913d 1c0b b13d c47f 503d c1a4 c4bd
00000010: 3733 d03b de92 28bd e4bd f2bc 984c 8a3d
00000020: 4b32 24bd 0b9b 9abd

classifier.1.weight f4 [3, 1690]
-0.01863543 0.016093902 0.0020072442 0.024750095 0.0055193696 -0.02223431 0.0062397975 0.022448227
0.015216426 0.0076099616 -0.018033534 -0.014421744 0.016478373 -0.015559451 0.006060534 -0.002629556
0.008775328 0.0024274618 -0.017953727 -0.009324453 0.021460833 0.0032519028 0.012760489 -0.011708395
0.019728456 -0.0049615297 -0.0076470026 0.005405768 -0.007959879 -0.008844298 -0.0022759063 -0.00024202027
-0.013081493 0.009010833 -0.022708204 0.015810644 0.02353708 0.0045958445 -0.0053697475 -0.021771122
0.012279685 0.020920495 0.021807821 0.0034868459 0.009240985 0.024572665 0.0045504374 -0.010899047
-0.022091297 0.011893519 0.010728684 0.022391351 -0.011322833 0.011656361 -0.006711535 -0.0049024695
0.015416177 -0.020776974 0.019710613 0.012766118 -0.013311283 0.013477121 -0.0047681737 0.0035721222
-0.0053971945 -0.02209094 -0.0007805648 0.013631791 -0.0015517847 -0.010809591 0.002168756 0.0062925066
-0.0054062908 -0.017985526 -0.011906985 -0.0024868436 0.0102503 0.02286989 0.002292724 0.010719168
0.015705476 -0.009163424 -0.0067682965 0.017847238 0.019175055 0.0071256137 -0.017761644 0.015326028
-0.01828766 0.013560993 0.00404264 0.009651582 -0.021644978 -0.006868495 0.011917039 0.020430392
-0.0048870477 0.023891885 -0.003332793 -0.012712581 -0.00838358 0.0037954836 -0.0024743262 0.013223003
-0.0120052425 -0.0051188865 -0.022195352 0.021648085 -0.0026372892 -0.016671365 0.0015830611 0.0027238596
0.009238735 -0.0002200516 0.017667806 -0.006323765 -0.005812625 -0.0047521745 0.0058518406 0.021543713
0.0010957874 0.021016028 0.02153632 -0.010031918 0.00036711124 -0.009413373 0.012309088 -0.0063666087
0.0091672195 0.002409007 -0.015345454 -0.015204216 -0.021917975 -0.0113117155 0.009160063 0.0039086044
0.020646492 -0.01902296 0.0013932881 -0.019725347 0.0020627426 0.01012753 -0.021298762 0.021727737
-0.0068159797 0.022801198 -0.0021994708 0.01584389 0.024086123 -0.0069321743 -0.0038625442 0.014660736
-0.019011643 0.01575558 -0.014354012 0.023089757 -0.016322045 -0.009763605 0.018631307 -0.0096118
0.02207308 0.017838607 0.023389554 -0.022355443 0.0013682222 -0.0071063167 0.0064771157 -0.017924225
0.009834512 -0.008920525 -0.019201254 -0.030447021 0.0047801742 -0.015496931 0.012255056 -0.0028641517
0.000133273 -0.010498907 -0.010400801 -0.01287465 -0.024492068 0.013211533 -0.023234563 0.0066924845
-0.016105851 0.007275936 0.013512029 -0.020694269 0.013875808 -0.007708423 -0.026753629 0.0016400742
0.0055446266 0.014919693 -0.026166525 0.0151385525 0.010926788 0.0149052 0.0017866099 -0.023731302
0.007550492 0.01288627 -0.021037243 -0.015054853 0.008812411 0.008808592 0.008511514 0.0120969005
-0.020769645 -0.012960386 -0.017533097 0.00429679 -0.007959719 -0.034941696 -0.018649707 -0.034088507
-0.03398374 0.011141426 -0.025213856 0.00077051565 -0.011200558 -0.014349693 -0.011626433 0.010516812
-0.011208913 0.011349437 -0.0004445315 -0.00030749186 -0.03417712 -0.022101838 -0.030287815 -0.016598532
-0.017827239 -0.004564798 0.00929358 -0.0036740422 -0.027099987 -0.024329204 0.009747191 -0.009227534
-0.007059276 -0.02087928 -0.009535642 -0.0030825555 -0.026610952 0.005192089 0.0021211049 -0.027197002
-0.023173463 -0.01861413 -0.007012851 -0.019261926 0.010736196 -0.03751974 -0.021358835 -0.023788579
00000000: 54a9 98bc 5cd7 833c f88b 033b b6c0 ca3c
00000010: d4db b43b ba24 b6bc 3777 cc3b 58e5 b73c
00000020: 514e 793c fc5c f93b 10bb 93bc 2e49 6cbc
00000030: a7fd 863c 11ed 7ebc 7297 c63b a154 2cbb
00000040: 65c6 0f3c 0d16 1f3b b213 93bc 97c5 18bc
00000050: a1ce af3c e01d 553b 5f11 513c 91d4 3fbc
00000060: 929d a13c 5494 a2bb b593 fabb de22 b13b
00000070: 276a 02bc ade7 10bc 5f27 15bb d2c6 7db9
00000080: c253 56bc 2ca2 133c 8e06 babc 5385 813c
00000090: d6d0 c03c bd98 963b b5f4 afbb 5a59 b2bc
000000a0: bb30 493c 7561 ab3c 51a6 b23c 9183 643b
000000b0: 8067 173c 9d4c c93c d61b 953b eb91 32bc
000000c0: cff8 b4bc 09dd 423c 5dc7 2f3c 116e b73c
000000d0: 6783 39bc 52fa 3e3c 70ec dbbb e5a4 a0bb
000000e0: 2294 7c3c 7934 aabc 2778 a13c fb28 513c
000000f0: 9117 5abc 24cf 5c3c 573e 9cbb 441a 6a3b
00000100: f3da b0bb 0ff8 b4bc d19e 4cba e057 5f3c
00000110: 4165 cbba b61a 31bc b021 0e3b 5f31 ce3b
00000120: 4127 b1bb 6256 93bc 8415 43bc 50fa 22bb
00000130: e0f0 273c a359 bb3c 8741 163b 739f 2f3c
00000140: c5a8 803c 3022 16bc 96c8 ddbb 5f34 923c
00000150: 0115 9d3c fb7d e93b de80 91bc 051a 7b3c
00000160: 01d0 95bc ed2e 5e3c 1f78 843b ab21 1e3c
00000170: cf50 b1bc 1d11 e1bb af3f 433c a35d a73c
00000180: 8723 a0bb eab8 c33c fd6a 5abb 6e48 50bc
00000190: 485b 09bc a6bd 783b 4e28 22bb 4ba5 583c
000001a0: a3b1 44bc 55bc a7bb 07d3 b5bc 5357 b13c
000001b0: 5fd6 2cbb 6392 88bc b77e cf3a c882 323b
000001c0: 105e 173c a7bd 66b9 13bc 903c 9637 cfbb
000001d0: d577 bebb 21b8 9bbb ccc0 bf3b 717c b03c
000001e0: 86a0 8f3a ce29 ac3c f06c b03c ea5c 24bc
000001f0: d678 c039 8c3a 1abc 0fac 493c fc9e d0bb
00000200: 1b32 163c 6ee0 1d3b 806b 7bbc 1b1b 79bc
00000210: 538d b3bc c654 39bc 1714 163c c013 803b
00000220: d522 a93c 0ad6 9bbc fe9e b63a 0d97 a1bc
00000230: 142f 073b f1ed 253c be7a aebc 5efe b13c
00000240: 9558 dfbb 94c9 ba3c ff24 10bb 0ccb 813c
00000250: 4350 c53c 4b27 e3bb bd22 7dbb 9533 703c
00000260: 4ebe 9bbc d911 813c 172d 6bbc bb26 bd3c
00000270: cfb5 85bc 87f7 1fbc afa0 983c d07a 1dbc
00000280: 9bd2 b43c 4522 923c 739b bf3c c322 b7bc
00000290: eb55 b33a 1bdc e8bb fc3d d43b d3d5 92bc
000002a0: ef20 213c 6527 12bc f34b 9dbc 086c f9bc
000002b0: 02a3 9c3b d7e6 7dbc 6ec9 483c 7eb4 3bbb
000002c0: 33bf 0b39 9c03 2cbc 1f68 2abc 32f0 52bc
000002d0: 97a3 c8bc 3075 583c 6956 bebc a14c db3b
000002e0: 6bf0 83bc fa6a ee3b 8f61 5d3c 0787 a9bc
000002f0: 5b57 633c f096 fcbb 6d2a dbbc c2f7 d63a
00000300: b3af b53b ba71 743c 2e5b d6bc b107 783c
00000310: 4506 333c f134 743c ae2c ea3a 2668 c2bc
00000320: 1e6a f73b ef20 533c 4c56 acbc a1a8 76bc
00000330: ee61 103c ea51 103c e173 0b3c 1432 463c
00000340: 1a25 aabc cd57 54bc 92a1 8fbc 16cc 8c3b
00000350: 7b69 02bc 061f 0fbd 45c7 98bc 64a0 0bbd
00000360: 8932 0bbd 878a 363c 4a8d cebc 6efc 493a
00000370: 8c82 37bc fa1a 6bbc cb7c 3ebc b54e 2c3c
00000380: 97a5 37bc fdf2 393c 0210 e9b9 dc36 a1b9
00000390: 4ffd 0bbd ea0e b5bc 271e f8bc a5f9 87bc
000003a0: 6e0a 92bc 4d94 95bb 1a44 183c 33c8 70bb
000003b0: cb00 debc 0a4e c7bc afb2 1f3c 152f 17bc
000003c0: 8051 e7bb 060b abbc 623b 1cbc b304 4abb
000003d0: 36ff d9bc 6622 aa3b 3c02 0b3b 3fcc debc
000003e0: 46d6 bdbc a97c 98bc 0fcc e5bb 30cb 9dbc
000003f0: dfe6 2f3c 4dae 19bd b9f8 aebc 44e0 c2bc

classifier.1.bias f4 [3]
0.010122169 -0.01005958 -0.019740518
00000000: 74d7 253c f0d0 24bc deb6 a1bc
